{"format": "graph-model", "generatedBy": "2.19.0", "convertedBy": "TensorFlow.js Converter v4.22.0", "signature": {"inputs": {"keras_tensor_25787": {"name": "keras_tensor_25787:0", "dtype": "DT_FLOAT", "tensorShape": {"dim": [{"size": "-1"}, {"size": "256"}, {"size": "256"}, {"size": "3"}]}}}, "outputs": {"output_0": {"name": "Identity:0", "dtype": "DT_FLOAT", "tensorShape": {"dim": [{"size": "-1"}, {"size": "10"}]}}}}, "modelTopology": {"node": [{"name": "StatefulPartitionedCall/functional_177_1/efficientnetv2-b3_1/block6l_project_bn_1/batchnorm/sub", "op": "Const", "attr": {"value": {"tensor": {"dtype": "DT_FLOAT", "tensorShape": {"dim": [{"size": "1"}, {"size": "1"}, {"size": "1"}, {"size": "232"}]}}}, "dtype": {"type": "DT_FLOAT"}}}, {"name": "StatefulPartitionedCall/functional_177_1/efficientnetv2-b3_1/block6l_expand_conv_1/convolution/merged_input", "op": "Const", "attr": {"value": {"tensor": {"dtype": "DT_FLOAT", "tensorShape": {"dim": [{"size": "1"}, {"size": "1"}, {"size": "232"}, {"size": "1392"}]}}}, "dtype": {"type": "DT_FLOAT"}}}, {"name": "StatefulPartitionedCall/functional_177_1/efficientnetv2-b3_1/block6l_expand_bn_1/batchnorm/sub", "op": "Const", "attr": {"value": {"tensor": {"dtype": "DT_FLOAT", "tensorShape": {"dim": [{"size": "1"}, {"size": "1"}, {"size": "1"}, {"size": "1392"}]}}}, "dtype": {"type": "DT_FLOAT"}}}, {"name": "StatefulPartitionedCall/functional_177_1/efficientnetv2-b3_1/block6l_dwconv2_1/depthwise/ReadVariableOp", "op": "Const", "attr": {"value": {"tensor": {"dtype": "DT_FLOAT", "tensorShape": {"dim": [{"size": "3"}, {"size": "3"}, {"size": "1392"}, {"size": "1"}]}}}, "dtype": {"type": "DT_FLOAT"}}}, {"name": "StatefulPartitionedCall/functional_177_1/efficientnetv2-b3_1/block6l_bn_1/batchnorm/mul", "op": "Const", "attr": {"value": {"tensor": {"dtype": "DT_FLOAT", "tensorShape": {"dim": [{"size": "1"}, {"size": "1"}, {"size": "1"}, {"size": "1392"}]}}}, "dtype": {"type": "DT_FLOAT"}}}, {"name": "StatefulPartitionedCall/functional_177_1/efficientnetv2-b3_1/block6l_bn_1/batchnorm/sub", "op": "Const", "attr": {"value": {"tensor": {"dtype": "DT_FLOAT", "tensorShape": {"dim": [{"size": "1"}, {"size": "1"}, {"size": "1"}, {"size": "1392"}]}}}, "dtype": {"type": "DT_FLOAT"}}}, {"name": "StatefulPartitionedCall/functional_177_1/efficientnetv2-b3_1/block6l_se_squeeze_1/Mean/reduction_indices", "op": "Const", "attr": {"value": {"tensor": {"dtype": "DT_INT32", "tensorShape": {"dim": [{"size": "2"}]}}}, "dtype": {"type": "DT_INT32"}}}, {"name": "StatefulPartitionedCall/functional_177_1/efficientnetv2-b3_1/block6l_se_reshape_1/strided_slice/stack", "op": "Const", "attr": {"value": {"tensor": {"dtype": "DT_INT32", "tensorShape": {"dim": [{"size": "1"}]}}}, "dtype": {"type": "DT_INT32"}}}, {"name": "StatefulPartitionedCall/functional_177_1/efficientnetv2-b3_1/block6l_se_reshape_1/strided_slice/stack_1", "op": "Const", "attr": {"value": {"tensor": {"dtype": "DT_INT32", "tensorShape": {"dim": [{"size": "1"}]}}}, "dtype": {"type": "DT_INT32"}}}, {"name": "StatefulPartitionedCall/functional_177_1/efficientnetv2-b3_1/block6l_se_reshape_1/strided_slice/stack_2", "op": "Const", "attr": {"value": {"tensor": {"dtype": "DT_INT32", "tensorShape": {"dim": [{"size": "1"}]}}}, "dtype": {"type": "DT_INT32"}}}, {"name": "StatefulPartitionedCall/functional_177_1/efficientnetv2-b3_1/block6l_se_reshape_1/Reshape/shape/1", "op": "Const", "attr": {"value": {"tensor": {"dtype": "DT_INT32", "tensorShape": {}}}, "dtype": {"type": "DT_INT32"}}}, {"name": "StatefulPartitionedCall/functional_177_1/efficientnetv2-b3_1/block6l_se_reshape_1/Reshape/shape/2", "op": "Const", "attr": {"value": {"tensor": {"dtype": "DT_INT32", "tensorShape": {}}}, "dtype": {"type": "DT_INT32"}}}, {"name": "StatefulPartitionedCall/functional_177_1/efficientnetv2-b3_1/block6l_se_reshape_1/Reshape/shape/3", "op": "Const", "attr": {"value": {"tensor": {"dtype": "DT_INT32", "tensorShape": {}}}, "dtype": {"type": "DT_INT32"}}}, {"name": "StatefulPartitionedCall/functional_177_1/efficientnetv2-b3_1/block6l_se_reduce_1/convolution/ReadVariableOp", "op": "Const", "attr": {"value": {"tensor": {"dtype": "DT_FLOAT", "tensorShape": {"dim": [{"size": "1"}, {"size": "1"}, {"size": "1392"}, {"size": "58"}]}}}, "dtype": {"type": "DT_FLOAT"}}}, {"name": "StatefulPartitionedCall/functional_177_1/efficientnetv2-b3_1/block6l_se_reduce_1/Squeeze", "op": "Const", "attr": {"value": {"tensor": {"dtype": "DT_FLOAT", "tensorShape": {"dim": [{"size": "58"}]}}}, "dtype": {"type": "DT_FLOAT"}}}, {"name": "StatefulPartitionedCall/functional_177_1/efficientnetv2-b3_1/block6l_se_expand_1/convolution/ReadVariableOp", "op": "Const", "attr": {"value": {"tensor": {"dtype": "DT_FLOAT", "tensorShape": {"dim": [{"size": "1"}, {"size": "1"}, {"size": "58"}, {"size": "1392"}]}}}, "dtype": {"type": "DT_FLOAT"}}}, {"name": "StatefulPartitionedCall/functional_177_1/efficientnetv2-b3_1/block6l_se_expand_1/Squeeze", "op": "Const", "attr": {"value": {"tensor": {"dtype": "DT_FLOAT", "tensorShape": {"dim": [{"size": "1392"}]}}}, "dtype": {"type": "DT_FLOAT"}}}, {"name": "StatefulPartitionedCall/functional_177_1/efficientnetv2-b3_1/block6l_project_conv_1/convolution/merged_input", "op": "Const", "attr": {"value": {"tensor": {"dtype": "DT_FLOAT", "tensorShape": {"dim": [{"size": "1"}, {"size": "1"}, {"size": "1392"}, {"size": "232"}]}}}, "dtype": {"type": "DT_FLOAT"}}}, {"name": "StatefulPartitionedCall/functional_177_1/efficientnetv2-b3_1/block6k_project_bn_1/batchnorm/sub", "op": "Const", "attr": {"value": {"tensor": {"dtype": "DT_FLOAT", "tensorShape": {"dim": [{"size": "1"}, {"size": "1"}, {"size": "1"}, {"size": "232"}]}}}, "dtype": {"type": "DT_FLOAT"}}}, {"name": "StatefulPartitionedCall/functional_177_1/efficientnetv2-b3_1/block6k_expand_conv_1/convolution/merged_input", "op": "Const", "attr": {"value": {"tensor": {"dtype": "DT_FLOAT", "tensorShape": {"dim": [{"size": "1"}, {"size": "1"}, {"size": "232"}, {"size": "1392"}]}}}, "dtype": {"type": "DT_FLOAT"}}}, {"name": "StatefulPartitionedCall/functional_177_1/efficientnetv2-b3_1/block6k_expand_bn_1/batchnorm/sub", "op": "Const", "attr": {"value": {"tensor": {"dtype": "DT_FLOAT", "tensorShape": {"dim": [{"size": "1"}, {"size": "1"}, {"size": "1"}, {"size": "1392"}]}}}, "dtype": {"type": "DT_FLOAT"}}}, {"name": "StatefulPartitionedCall/functional_177_1/efficientnetv2-b3_1/block6k_dwconv2_1/depthwise/ReadVariableOp", "op": "Const", "attr": {"value": {"tensor": {"dtype": "DT_FLOAT", "tensorShape": {"dim": [{"size": "3"}, {"size": "3"}, {"size": "1392"}, {"size": "1"}]}}}, "dtype": {"type": "DT_FLOAT"}}}, {"name": "StatefulPartitionedCall/functional_177_1/efficientnetv2-b3_1/block6k_bn_1/batchnorm/mul", "op": "Const", "attr": {"value": {"tensor": {"dtype": "DT_FLOAT", "tensorShape": {"dim": [{"size": "1"}, {"size": "1"}, {"size": "1"}, {"size": "1392"}]}}}, "dtype": {"type": "DT_FLOAT"}}}, {"name": "StatefulPartitionedCall/functional_177_1/efficientnetv2-b3_1/block6k_bn_1/batchnorm/sub", "op": "Const", "attr": {"value": {"tensor": {"dtype": "DT_FLOAT", "tensorShape": {"dim": [{"size": "1"}, {"size": "1"}, {"size": "1"}, {"size": "1392"}]}}}, "dtype": {"type": "DT_FLOAT"}}}, {"name": "StatefulPartitionedCall/functional_177_1/efficientnetv2-b3_1/block6k_se_squeeze_1/Mean/reduction_indices", "op": "Const", "attr": {"value": {"tensor": {"dtype": "DT_INT32", "tensorShape": {"dim": [{"size": "2"}]}}}, "dtype": {"type": "DT_INT32"}}}, {"name": "StatefulPartitionedCall/functional_177_1/efficientnetv2-b3_1/block6k_se_reshape_1/strided_slice/stack", "op": "Const", "attr": {"value": {"tensor": {"dtype": "DT_INT32", "tensorShape": {"dim": [{"size": "1"}]}}}, "dtype": {"type": "DT_INT32"}}}, {"name": "StatefulPartitionedCall/functional_177_1/efficientnetv2-b3_1/block6k_se_reshape_1/strided_slice/stack_1", "op": "Const", "attr": {"value": {"tensor": {"dtype": "DT_INT32", "tensorShape": {"dim": [{"size": "1"}]}}}, "dtype": {"type": "DT_INT32"}}}, {"name": "StatefulPartitionedCall/functional_177_1/efficientnetv2-b3_1/block6k_se_reshape_1/strided_slice/stack_2", "op": "Const", "attr": {"value": {"tensor": {"dtype": "DT_INT32", "tensorShape": {"dim": [{"size": "1"}]}}}, "dtype": {"type": "DT_INT32"}}}, {"name": "StatefulPartitionedCall/functional_177_1/efficientnetv2-b3_1/block6k_se_reshape_1/Reshape/shape/1", "op": "Const", "attr": {"value": {"tensor": {"dtype": "DT_INT32", "tensorShape": {}}}, "dtype": {"type": "DT_INT32"}}}, {"name": "StatefulPartitionedCall/functional_177_1/efficientnetv2-b3_1/block6k_se_reshape_1/Reshape/shape/2", "op": "Const", "attr": {"value": {"tensor": {"dtype": "DT_INT32", "tensorShape": {}}}, "dtype": {"type": "DT_INT32"}}}, {"name": "StatefulPartitionedCall/functional_177_1/efficientnetv2-b3_1/block6k_se_reshape_1/Reshape/shape/3", "op": "Const", "attr": {"value": {"tensor": {"dtype": "DT_INT32", "tensorShape": {}}}, "dtype": {"type": "DT_INT32"}}}, {"name": "StatefulPartitionedCall/functional_177_1/efficientnetv2-b3_1/block6k_se_reduce_1/convolution/ReadVariableOp", "op": "Const", "attr": {"value": {"tensor": {"dtype": "DT_FLOAT", "tensorShape": {"dim": [{"size": "1"}, {"size": "1"}, {"size": "1392"}, {"size": "58"}]}}}, "dtype": {"type": "DT_FLOAT"}}}, {"name": "StatefulPartitionedCall/functional_177_1/efficientnetv2-b3_1/block6k_se_reduce_1/Squeeze", "op": "Const", "attr": {"value": {"tensor": {"dtype": "DT_FLOAT", "tensorShape": {"dim": [{"size": "58"}]}}}, "dtype": {"type": "DT_FLOAT"}}}, {"name": "StatefulPartitionedCall/functional_177_1/efficientnetv2-b3_1/block6k_se_expand_1/convolution/ReadVariableOp", "op": "Const", "attr": {"value": {"tensor": {"dtype": "DT_FLOAT", "tensorShape": {"dim": [{"size": "1"}, {"size": "1"}, {"size": "58"}, {"size": "1392"}]}}}, "dtype": {"type": "DT_FLOAT"}}}, {"name": "StatefulPartitionedCall/functional_177_1/efficientnetv2-b3_1/block6k_se_expand_1/Squeeze", "op": "Const", "attr": {"value": {"tensor": {"dtype": "DT_FLOAT", "tensorShape": {"dim": [{"size": "1392"}]}}}, "dtype": {"type": "DT_FLOAT"}}}, {"name": "StatefulPartitionedCall/functional_177_1/efficientnetv2-b3_1/block6k_project_conv_1/convolution/merged_input", "op": "Const", "attr": {"value": {"tensor": {"dtype": "DT_FLOAT", "tensorShape": {"dim": [{"size": "1"}, {"size": "1"}, {"size": "1392"}, {"size": "232"}]}}}, "dtype": {"type": "DT_FLOAT"}}}, {"name": "StatefulPartitionedCall/functional_177_1/efficientnetv2-b3_1/block6j_project_bn_1/batchnorm/sub", "op": "Const", "attr": {"value": {"tensor": {"dtype": "DT_FLOAT", "tensorShape": {"dim": [{"size": "1"}, {"size": "1"}, {"size": "1"}, {"size": "232"}]}}}, "dtype": {"type": "DT_FLOAT"}}}, {"name": "StatefulPartitionedCall/functional_177_1/efficientnetv2-b3_1/block6j_expand_conv_1/convolution/merged_input", "op": "Const", "attr": {"value": {"tensor": {"dtype": "DT_FLOAT", "tensorShape": {"dim": [{"size": "1"}, {"size": "1"}, {"size": "232"}, {"size": "1392"}]}}}, "dtype": {"type": "DT_FLOAT"}}}, {"name": "StatefulPartitionedCall/functional_177_1/efficientnetv2-b3_1/block6j_expand_bn_1/batchnorm/sub", "op": "Const", "attr": {"value": {"tensor": {"dtype": "DT_FLOAT", "tensorShape": {"dim": [{"size": "1"}, {"size": "1"}, {"size": "1"}, {"size": "1392"}]}}}, "dtype": {"type": "DT_FLOAT"}}}, {"name": "StatefulPartitionedCall/functional_177_1/efficientnetv2-b3_1/block6j_dwconv2_1/depthwise/ReadVariableOp", "op": "Const", "attr": {"value": {"tensor": {"dtype": "DT_FLOAT", "tensorShape": {"dim": [{"size": "3"}, {"size": "3"}, {"size": "1392"}, {"size": "1"}]}}}, "dtype": {"type": "DT_FLOAT"}}}, {"name": "StatefulPartitionedCall/functional_177_1/efficientnetv2-b3_1/block6j_bn_1/batchnorm/mul", "op": "Const", "attr": {"value": {"tensor": {"dtype": "DT_FLOAT", "tensorShape": {"dim": [{"size": "1"}, {"size": "1"}, {"size": "1"}, {"size": "1392"}]}}}, "dtype": {"type": "DT_FLOAT"}}}, {"name": "StatefulPartitionedCall/functional_177_1/efficientnetv2-b3_1/block6j_bn_1/batchnorm/sub", "op": "Const", "attr": {"value": {"tensor": {"dtype": "DT_FLOAT", "tensorShape": {"dim": [{"size": "1"}, {"size": "1"}, {"size": "1"}, {"size": "1392"}]}}}, "dtype": {"type": "DT_FLOAT"}}}, {"name": "StatefulPartitionedCall/functional_177_1/efficientnetv2-b3_1/block6j_se_squeeze_1/Mean/reduction_indices", "op": "Const", "attr": {"value": {"tensor": {"dtype": "DT_INT32", "tensorShape": {"dim": [{"size": "2"}]}}}, "dtype": {"type": "DT_INT32"}}}, {"name": "StatefulPartitionedCall/functional_177_1/efficientnetv2-b3_1/block6j_se_reshape_1/strided_slice/stack", "op": "Const", "attr": {"value": {"tensor": {"dtype": "DT_INT32", "tensorShape": {"dim": [{"size": "1"}]}}}, "dtype": {"type": "DT_INT32"}}}, {"name": "StatefulPartitionedCall/functional_177_1/efficientnetv2-b3_1/block6j_se_reshape_1/strided_slice/stack_1", "op": "Const", "attr": {"value": {"tensor": {"dtype": "DT_INT32", "tensorShape": {"dim": [{"size": "1"}]}}}, "dtype": {"type": "DT_INT32"}}}, {"name": "StatefulPartitionedCall/functional_177_1/efficientnetv2-b3_1/block6j_se_reshape_1/strided_slice/stack_2", "op": "Const", "attr": {"value": {"tensor": {"dtype": "DT_INT32", "tensorShape": {"dim": [{"size": "1"}]}}}, "dtype": {"type": "DT_INT32"}}}, {"name": "StatefulPartitionedCall/functional_177_1/efficientnetv2-b3_1/block6j_se_reshape_1/Reshape/shape/1", "op": "Const", "attr": {"value": {"tensor": {"dtype": "DT_INT32", "tensorShape": {}}}, "dtype": {"type": "DT_INT32"}}}, {"name": "StatefulPartitionedCall/functional_177_1/efficientnetv2-b3_1/block6j_se_reshape_1/Reshape/shape/2", "op": "Const", "attr": {"value": {"tensor": {"dtype": "DT_INT32", "tensorShape": {}}}, "dtype": {"type": "DT_INT32"}}}, {"name": "StatefulPartitionedCall/functional_177_1/efficientnetv2-b3_1/block6j_se_reshape_1/Reshape/shape/3", "op": "Const", "attr": {"value": {"tensor": {"dtype": "DT_INT32", "tensorShape": {}}}, "dtype": {"type": "DT_INT32"}}}, {"name": "StatefulPartitionedCall/functional_177_1/efficientnetv2-b3_1/block6j_se_reduce_1/convolution/ReadVariableOp", "op": "Const", "attr": {"value": {"tensor": {"dtype": "DT_FLOAT", "tensorShape": {"dim": [{"size": "1"}, {"size": "1"}, {"size": "1392"}, {"size": "58"}]}}}, "dtype": {"type": "DT_FLOAT"}}}, {"name": "StatefulPartitionedCall/functional_177_1/efficientnetv2-b3_1/block6j_se_reduce_1/Squeeze", "op": "Const", "attr": {"value": {"tensor": {"dtype": "DT_FLOAT", "tensorShape": {"dim": [{"size": "58"}]}}}, "dtype": {"type": "DT_FLOAT"}}}, {"name": "StatefulPartitionedCall/functional_177_1/efficientnetv2-b3_1/block6j_se_expand_1/convolution/ReadVariableOp", "op": "Const", "attr": {"value": {"tensor": {"dtype": "DT_FLOAT", "tensorShape": {"dim": [{"size": "1"}, {"size": "1"}, {"size": "58"}, {"size": "1392"}]}}}, "dtype": {"type": "DT_FLOAT"}}}, {"name": "StatefulPartitionedCall/functional_177_1/efficientnetv2-b3_1/block6j_se_expand_1/Squeeze", "op": "Const", "attr": {"value": {"tensor": {"dtype": "DT_FLOAT", "tensorShape": {"dim": [{"size": "1392"}]}}}, "dtype": {"type": "DT_FLOAT"}}}, {"name": "StatefulPartitionedCall/functional_177_1/efficientnetv2-b3_1/block6j_project_conv_1/convolution/merged_input", "op": "Const", "attr": {"value": {"tensor": {"dtype": "DT_FLOAT", "tensorShape": {"dim": [{"size": "1"}, {"size": "1"}, {"size": "1392"}, {"size": "232"}]}}}, "dtype": {"type": "DT_FLOAT"}}}, {"name": "StatefulPartitionedCall/functional_177_1/efficientnetv2-b3_1/block6i_project_bn_1/batchnorm/sub", "op": "Const", "attr": {"value": {"tensor": {"dtype": "DT_FLOAT", "tensorShape": {"dim": [{"size": "1"}, {"size": "1"}, {"size": "1"}, {"size": "232"}]}}}, "dtype": {"type": "DT_FLOAT"}}}, {"name": "StatefulPartitionedCall/functional_177_1/efficientnetv2-b3_1/block6i_expand_conv_1/convolution/merged_input", "op": "Const", "attr": {"value": {"tensor": {"dtype": "DT_FLOAT", "tensorShape": {"dim": [{"size": "1"}, {"size": "1"}, {"size": "232"}, {"size": "1392"}]}}}, "dtype": {"type": "DT_FLOAT"}}}, {"name": "StatefulPartitionedCall/functional_177_1/efficientnetv2-b3_1/block6i_expand_bn_1/batchnorm/sub", "op": "Const", "attr": {"value": {"tensor": {"dtype": "DT_FLOAT", "tensorShape": {"dim": [{"size": "1"}, {"size": "1"}, {"size": "1"}, {"size": "1392"}]}}}, "dtype": {"type": "DT_FLOAT"}}}, {"name": "StatefulPartitionedCall/functional_177_1/efficientnetv2-b3_1/block6i_dwconv2_1/depthwise/ReadVariableOp", "op": "Const", "attr": {"value": {"tensor": {"dtype": "DT_FLOAT", "tensorShape": {"dim": [{"size": "3"}, {"size": "3"}, {"size": "1392"}, {"size": "1"}]}}}, "dtype": {"type": "DT_FLOAT"}}}, {"name": "StatefulPartitionedCall/functional_177_1/efficientnetv2-b3_1/block6i_bn_1/batchnorm/mul", "op": "Const", "attr": {"value": {"tensor": {"dtype": "DT_FLOAT", "tensorShape": {"dim": [{"size": "1"}, {"size": "1"}, {"size": "1"}, {"size": "1392"}]}}}, "dtype": {"type": "DT_FLOAT"}}}, {"name": "StatefulPartitionedCall/functional_177_1/efficientnetv2-b3_1/block6i_bn_1/batchnorm/sub", "op": "Const", "attr": {"value": {"tensor": {"dtype": "DT_FLOAT", "tensorShape": {"dim": [{"size": "1"}, {"size": "1"}, {"size": "1"}, {"size": "1392"}]}}}, "dtype": {"type": "DT_FLOAT"}}}, {"name": "StatefulPartitionedCall/functional_177_1/efficientnetv2-b3_1/block6i_se_squeeze_1/Mean/reduction_indices", "op": "Const", "attr": {"value": {"tensor": {"dtype": "DT_INT32", "tensorShape": {"dim": [{"size": "2"}]}}}, "dtype": {"type": "DT_INT32"}}}, {"name": "StatefulPartitionedCall/functional_177_1/efficientnetv2-b3_1/block6i_se_reshape_1/strided_slice/stack", "op": "Const", "attr": {"value": {"tensor": {"dtype": "DT_INT32", "tensorShape": {"dim": [{"size": "1"}]}}}, "dtype": {"type": "DT_INT32"}}}, {"name": "StatefulPartitionedCall/functional_177_1/efficientnetv2-b3_1/block6i_se_reshape_1/strided_slice/stack_1", "op": "Const", "attr": {"value": {"tensor": {"dtype": "DT_INT32", "tensorShape": {"dim": [{"size": "1"}]}}}, "dtype": {"type": "DT_INT32"}}}, {"name": "StatefulPartitionedCall/functional_177_1/efficientnetv2-b3_1/block6i_se_reshape_1/strided_slice/stack_2", "op": "Const", "attr": {"value": {"tensor": {"dtype": "DT_INT32", "tensorShape": {"dim": [{"size": "1"}]}}}, "dtype": {"type": "DT_INT32"}}}, {"name": "StatefulPartitionedCall/functional_177_1/efficientnetv2-b3_1/block6i_se_reshape_1/Reshape/shape/1", "op": "Const", "attr": {"value": {"tensor": {"dtype": "DT_INT32", "tensorShape": {}}}, "dtype": {"type": "DT_INT32"}}}, {"name": "StatefulPartitionedCall/functional_177_1/efficientnetv2-b3_1/block6i_se_reshape_1/Reshape/shape/2", "op": "Const", "attr": {"value": {"tensor": {"dtype": "DT_INT32", "tensorShape": {}}}, "dtype": {"type": "DT_INT32"}}}, {"name": "StatefulPartitionedCall/functional_177_1/efficientnetv2-b3_1/block6i_se_reshape_1/Reshape/shape/3", "op": "Const", "attr": {"value": {"tensor": {"dtype": "DT_INT32", "tensorShape": {}}}, "dtype": {"type": "DT_INT32"}}}, {"name": "StatefulPartitionedCall/functional_177_1/efficientnetv2-b3_1/block6i_se_reduce_1/convolution/ReadVariableOp", "op": "Const", "attr": {"value": {"tensor": {"dtype": "DT_FLOAT", "tensorShape": {"dim": [{"size": "1"}, {"size": "1"}, {"size": "1392"}, {"size": "58"}]}}}, "dtype": {"type": "DT_FLOAT"}}}, {"name": "StatefulPartitionedCall/functional_177_1/efficientnetv2-b3_1/block6i_se_reduce_1/Squeeze", "op": "Const", "attr": {"value": {"tensor": {"dtype": "DT_FLOAT", "tensorShape": {"dim": [{"size": "58"}]}}}, "dtype": {"type": "DT_FLOAT"}}}, {"name": "StatefulPartitionedCall/functional_177_1/efficientnetv2-b3_1/block6i_se_expand_1/convolution/ReadVariableOp", "op": "Const", "attr": {"value": {"tensor": {"dtype": "DT_FLOAT", "tensorShape": {"dim": [{"size": "1"}, {"size": "1"}, {"size": "58"}, {"size": "1392"}]}}}, "dtype": {"type": "DT_FLOAT"}}}, {"name": "StatefulPartitionedCall/functional_177_1/efficientnetv2-b3_1/block6i_se_expand_1/Squeeze", "op": "Const", "attr": {"value": {"tensor": {"dtype": "DT_FLOAT", "tensorShape": {"dim": [{"size": "1392"}]}}}, "dtype": {"type": "DT_FLOAT"}}}, {"name": "StatefulPartitionedCall/functional_177_1/efficientnetv2-b3_1/block6i_project_conv_1/convolution/merged_input", "op": "Const", "attr": {"value": {"tensor": {"dtype": "DT_FLOAT", "tensorShape": {"dim": [{"size": "1"}, {"size": "1"}, {"size": "1392"}, {"size": "232"}]}}}, "dtype": {"type": "DT_FLOAT"}}}, {"name": "StatefulPartitionedCall/functional_177_1/efficientnetv2-b3_1/block6h_project_bn_1/batchnorm/sub", "op": "Const", "attr": {"value": {"tensor": {"dtype": "DT_FLOAT", "tensorShape": {"dim": [{"size": "1"}, {"size": "1"}, {"size": "1"}, {"size": "232"}]}}}, "dtype": {"type": "DT_FLOAT"}}}, {"name": "StatefulPartitionedCall/functional_177_1/efficientnetv2-b3_1/block6h_expand_conv_1/convolution/merged_input", "op": "Const", "attr": {"value": {"tensor": {"dtype": "DT_FLOAT", "tensorShape": {"dim": [{"size": "1"}, {"size": "1"}, {"size": "232"}, {"size": "1392"}]}}}, "dtype": {"type": "DT_FLOAT"}}}, {"name": "StatefulPartitionedCall/functional_177_1/efficientnetv2-b3_1/block6h_expand_bn_1/batchnorm/sub", "op": "Const", "attr": {"value": {"tensor": {"dtype": "DT_FLOAT", "tensorShape": {"dim": [{"size": "1"}, {"size": "1"}, {"size": "1"}, {"size": "1392"}]}}}, "dtype": {"type": "DT_FLOAT"}}}, {"name": "StatefulPartitionedCall/functional_177_1/efficientnetv2-b3_1/block6h_dwconv2_1/depthwise/ReadVariableOp", "op": "Const", "attr": {"value": {"tensor": {"dtype": "DT_FLOAT", "tensorShape": {"dim": [{"size": "3"}, {"size": "3"}, {"size": "1392"}, {"size": "1"}]}}}, "dtype": {"type": "DT_FLOAT"}}}, {"name": "StatefulPartitionedCall/functional_177_1/efficientnetv2-b3_1/block6h_bn_1/batchnorm/mul", "op": "Const", "attr": {"value": {"tensor": {"dtype": "DT_FLOAT", "tensorShape": {"dim": [{"size": "1"}, {"size": "1"}, {"size": "1"}, {"size": "1392"}]}}}, "dtype": {"type": "DT_FLOAT"}}}, {"name": "StatefulPartitionedCall/functional_177_1/efficientnetv2-b3_1/block6h_bn_1/batchnorm/sub", "op": "Const", "attr": {"value": {"tensor": {"dtype": "DT_FLOAT", "tensorShape": {"dim": [{"size": "1"}, {"size": "1"}, {"size": "1"}, {"size": "1392"}]}}}, "dtype": {"type": "DT_FLOAT"}}}, {"name": "StatefulPartitionedCall/functional_177_1/efficientnetv2-b3_1/block6h_se_squeeze_1/Mean/reduction_indices", "op": "Const", "attr": {"value": {"tensor": {"dtype": "DT_INT32", "tensorShape": {"dim": [{"size": "2"}]}}}, "dtype": {"type": "DT_INT32"}}}, {"name": "StatefulPartitionedCall/functional_177_1/efficientnetv2-b3_1/block6h_se_reshape_1/strided_slice/stack", "op": "Const", "attr": {"value": {"tensor": {"dtype": "DT_INT32", "tensorShape": {"dim": [{"size": "1"}]}}}, "dtype": {"type": "DT_INT32"}}}, {"name": "StatefulPartitionedCall/functional_177_1/efficientnetv2-b3_1/block6h_se_reshape_1/strided_slice/stack_1", "op": "Const", "attr": {"value": {"tensor": {"dtype": "DT_INT32", "tensorShape": {"dim": [{"size": "1"}]}}}, "dtype": {"type": "DT_INT32"}}}, {"name": "StatefulPartitionedCall/functional_177_1/efficientnetv2-b3_1/block6h_se_reshape_1/strided_slice/stack_2", "op": "Const", "attr": {"value": {"tensor": {"dtype": "DT_INT32", "tensorShape": {"dim": [{"size": "1"}]}}}, "dtype": {"type": "DT_INT32"}}}, {"name": "StatefulPartitionedCall/functional_177_1/efficientnetv2-b3_1/block6h_se_reshape_1/Reshape/shape/1", "op": "Const", "attr": {"value": {"tensor": {"dtype": "DT_INT32", "tensorShape": {}}}, "dtype": {"type": "DT_INT32"}}}, {"name": "StatefulPartitionedCall/functional_177_1/efficientnetv2-b3_1/block6h_se_reshape_1/Reshape/shape/2", "op": "Const", "attr": {"value": {"tensor": {"dtype": "DT_INT32", "tensorShape": {}}}, "dtype": {"type": "DT_INT32"}}}, {"name": "StatefulPartitionedCall/functional_177_1/efficientnetv2-b3_1/block6h_se_reshape_1/Reshape/shape/3", "op": "Const", "attr": {"value": {"tensor": {"dtype": "DT_INT32", "tensorShape": {}}}, "dtype": {"type": "DT_INT32"}}}, {"name": "StatefulPartitionedCall/functional_177_1/efficientnetv2-b3_1/block6h_se_reduce_1/convolution/ReadVariableOp", "op": "Const", "attr": {"value": {"tensor": {"dtype": "DT_FLOAT", "tensorShape": {"dim": [{"size": "1"}, {"size": "1"}, {"size": "1392"}, {"size": "58"}]}}}, "dtype": {"type": "DT_FLOAT"}}}, {"name": "StatefulPartitionedCall/functional_177_1/efficientnetv2-b3_1/block6h_se_reduce_1/Squeeze", "op": "Const", "attr": {"value": {"tensor": {"dtype": "DT_FLOAT", "tensorShape": {"dim": [{"size": "58"}]}}}, "dtype": {"type": "DT_FLOAT"}}}, {"name": "StatefulPartitionedCall/functional_177_1/efficientnetv2-b3_1/block6h_se_expand_1/convolution/ReadVariableOp", "op": "Const", "attr": {"value": {"tensor": {"dtype": "DT_FLOAT", "tensorShape": {"dim": [{"size": "1"}, {"size": "1"}, {"size": "58"}, {"size": "1392"}]}}}, "dtype": {"type": "DT_FLOAT"}}}, {"name": "StatefulPartitionedCall/functional_177_1/efficientnetv2-b3_1/block6h_se_expand_1/Squeeze", "op": "Const", "attr": {"value": {"tensor": {"dtype": "DT_FLOAT", "tensorShape": {"dim": [{"size": "1392"}]}}}, "dtype": {"type": "DT_FLOAT"}}}, {"name": "StatefulPartitionedCall/functional_177_1/efficientnetv2-b3_1/block6h_project_conv_1/convolution/merged_input", "op": "Const", "attr": {"value": {"tensor": {"dtype": "DT_FLOAT", "tensorShape": {"dim": [{"size": "1"}, {"size": "1"}, {"size": "1392"}, {"size": "232"}]}}}, "dtype": {"type": "DT_FLOAT"}}}, {"name": "StatefulPartitionedCall/functional_177_1/efficientnetv2-b3_1/block6g_project_bn_1/batchnorm/sub", "op": "Const", "attr": {"value": {"tensor": {"dtype": "DT_FLOAT", "tensorShape": {"dim": [{"size": "1"}, {"size": "1"}, {"size": "1"}, {"size": "232"}]}}}, "dtype": {"type": "DT_FLOAT"}}}, {"name": "StatefulPartitionedCall/functional_177_1/efficientnetv2-b3_1/block6g_expand_conv_1/convolution/merged_input", "op": "Const", "attr": {"value": {"tensor": {"dtype": "DT_FLOAT", "tensorShape": {"dim": [{"size": "1"}, {"size": "1"}, {"size": "232"}, {"size": "1392"}]}}}, "dtype": {"type": "DT_FLOAT"}}}, {"name": "StatefulPartitionedCall/functional_177_1/efficientnetv2-b3_1/block6g_expand_bn_1/batchnorm/sub", "op": "Const", "attr": {"value": {"tensor": {"dtype": "DT_FLOAT", "tensorShape": {"dim": [{"size": "1"}, {"size": "1"}, {"size": "1"}, {"size": "1392"}]}}}, "dtype": {"type": "DT_FLOAT"}}}, {"name": "StatefulPartitionedCall/functional_177_1/efficientnetv2-b3_1/block6g_dwconv2_1/depthwise/ReadVariableOp", "op": "Const", "attr": {"value": {"tensor": {"dtype": "DT_FLOAT", "tensorShape": {"dim": [{"size": "3"}, {"size": "3"}, {"size": "1392"}, {"size": "1"}]}}}, "dtype": {"type": "DT_FLOAT"}}}, {"name": "StatefulPartitionedCall/functional_177_1/efficientnetv2-b3_1/block6g_bn_1/batchnorm/mul", "op": "Const", "attr": {"value": {"tensor": {"dtype": "DT_FLOAT", "tensorShape": {"dim": [{"size": "1"}, {"size": "1"}, {"size": "1"}, {"size": "1392"}]}}}, "dtype": {"type": "DT_FLOAT"}}}, {"name": "StatefulPartitionedCall/functional_177_1/efficientnetv2-b3_1/block6g_bn_1/batchnorm/sub", "op": "Const", "attr": {"value": {"tensor": {"dtype": "DT_FLOAT", "tensorShape": {"dim": [{"size": "1"}, {"size": "1"}, {"size": "1"}, {"size": "1392"}]}}}, "dtype": {"type": "DT_FLOAT"}}}, {"name": "StatefulPartitionedCall/functional_177_1/efficientnetv2-b3_1/block6g_se_squeeze_1/Mean/reduction_indices", "op": "Const", "attr": {"value": {"tensor": {"dtype": "DT_INT32", "tensorShape": {"dim": [{"size": "2"}]}}}, "dtype": {"type": "DT_INT32"}}}, {"name": "StatefulPartitionedCall/functional_177_1/efficientnetv2-b3_1/block6g_se_reshape_1/strided_slice/stack", "op": "Const", "attr": {"value": {"tensor": {"dtype": "DT_INT32", "tensorShape": {"dim": [{"size": "1"}]}}}, "dtype": {"type": "DT_INT32"}}}, {"name": "StatefulPartitionedCall/functional_177_1/efficientnetv2-b3_1/block6g_se_reshape_1/strided_slice/stack_1", "op": "Const", "attr": {"value": {"tensor": {"dtype": "DT_INT32", "tensorShape": {"dim": [{"size": "1"}]}}}, "dtype": {"type": "DT_INT32"}}}, {"name": "StatefulPartitionedCall/functional_177_1/efficientnetv2-b3_1/block6g_se_reshape_1/strided_slice/stack_2", "op": "Const", "attr": {"value": {"tensor": {"dtype": "DT_INT32", "tensorShape": {"dim": [{"size": "1"}]}}}, "dtype": {"type": "DT_INT32"}}}, {"name": "StatefulPartitionedCall/functional_177_1/efficientnetv2-b3_1/block6g_se_reshape_1/Reshape/shape/1", "op": "Const", "attr": {"value": {"tensor": {"dtype": "DT_INT32", "tensorShape": {}}}, "dtype": {"type": "DT_INT32"}}}, {"name": "StatefulPartitionedCall/functional_177_1/efficientnetv2-b3_1/block6g_se_reshape_1/Reshape/shape/2", "op": "Const", "attr": {"value": {"tensor": {"dtype": "DT_INT32", "tensorShape": {}}}, "dtype": {"type": "DT_INT32"}}}, {"name": "StatefulPartitionedCall/functional_177_1/efficientnetv2-b3_1/block6g_se_reshape_1/Reshape/shape/3", "op": "Const", "attr": {"value": {"tensor": {"dtype": "DT_INT32", "tensorShape": {}}}, "dtype": {"type": "DT_INT32"}}}, {"name": "StatefulPartitionedCall/functional_177_1/efficientnetv2-b3_1/block6g_se_reduce_1/convolution/ReadVariableOp", "op": "Const", "attr": {"value": {"tensor": {"dtype": "DT_FLOAT", "tensorShape": {"dim": [{"size": "1"}, {"size": "1"}, {"size": "1392"}, {"size": "58"}]}}}, "dtype": {"type": "DT_FLOAT"}}}, {"name": "StatefulPartitionedCall/functional_177_1/efficientnetv2-b3_1/block6g_se_reduce_1/Squeeze", "op": "Const", "attr": {"value": {"tensor": {"dtype": "DT_FLOAT", "tensorShape": {"dim": [{"size": "58"}]}}}, "dtype": {"type": "DT_FLOAT"}}}, {"name": "StatefulPartitionedCall/functional_177_1/efficientnetv2-b3_1/block6g_se_expand_1/convolution/ReadVariableOp", "op": "Const", "attr": {"value": {"tensor": {"dtype": "DT_FLOAT", "tensorShape": {"dim": [{"size": "1"}, {"size": "1"}, {"size": "58"}, {"size": "1392"}]}}}, "dtype": {"type": "DT_FLOAT"}}}, {"name": "StatefulPartitionedCall/functional_177_1/efficientnetv2-b3_1/block6g_se_expand_1/Squeeze", "op": "Const", "attr": {"value": {"tensor": {"dtype": "DT_FLOAT", "tensorShape": {"dim": [{"size": "1392"}]}}}, "dtype": {"type": "DT_FLOAT"}}}, {"name": "StatefulPartitionedCall/functional_177_1/efficientnetv2-b3_1/block6g_project_conv_1/convolution/merged_input", "op": "Const", "attr": {"value": {"tensor": {"dtype": "DT_FLOAT", "tensorShape": {"dim": [{"size": "1"}, {"size": "1"}, {"size": "1392"}, {"size": "232"}]}}}, "dtype": {"type": "DT_FLOAT"}}}, {"name": "StatefulPartitionedCall/functional_177_1/efficientnetv2-b3_1/block6f_project_bn_1/batchnorm/sub", "op": "Const", "attr": {"value": {"tensor": {"dtype": "DT_FLOAT", "tensorShape": {"dim": [{"size": "1"}, {"size": "1"}, {"size": "1"}, {"size": "232"}]}}}, "dtype": {"type": "DT_FLOAT"}}}, {"name": "StatefulPartitionedCall/functional_177_1/efficientnetv2-b3_1/block6f_expand_conv_1/convolution/merged_input", "op": "Const", "attr": {"value": {"tensor": {"dtype": "DT_FLOAT", "tensorShape": {"dim": [{"size": "1"}, {"size": "1"}, {"size": "232"}, {"size": "1392"}]}}}, "dtype": {"type": "DT_FLOAT"}}}, {"name": "StatefulPartitionedCall/functional_177_1/efficientnetv2-b3_1/block6f_expand_bn_1/batchnorm/sub", "op": "Const", "attr": {"value": {"tensor": {"dtype": "DT_FLOAT", "tensorShape": {"dim": [{"size": "1"}, {"size": "1"}, {"size": "1"}, {"size": "1392"}]}}}, "dtype": {"type": "DT_FLOAT"}}}, {"name": "StatefulPartitionedCall/functional_177_1/efficientnetv2-b3_1/block6f_dwconv2_1/depthwise/ReadVariableOp", "op": "Const", "attr": {"value": {"tensor": {"dtype": "DT_FLOAT", "tensorShape": {"dim": [{"size": "3"}, {"size": "3"}, {"size": "1392"}, {"size": "1"}]}}}, "dtype": {"type": "DT_FLOAT"}}}, {"name": "StatefulPartitionedCall/functional_177_1/efficientnetv2-b3_1/block6f_bn_1/batchnorm/mul", "op": "Const", "attr": {"value": {"tensor": {"dtype": "DT_FLOAT", "tensorShape": {"dim": [{"size": "1"}, {"size": "1"}, {"size": "1"}, {"size": "1392"}]}}}, "dtype": {"type": "DT_FLOAT"}}}, {"name": "StatefulPartitionedCall/functional_177_1/efficientnetv2-b3_1/block6f_bn_1/batchnorm/sub", "op": "Const", "attr": {"value": {"tensor": {"dtype": "DT_FLOAT", "tensorShape": {"dim": [{"size": "1"}, {"size": "1"}, {"size": "1"}, {"size": "1392"}]}}}, "dtype": {"type": "DT_FLOAT"}}}, {"name": "StatefulPartitionedCall/functional_177_1/efficientnetv2-b3_1/block6f_se_squeeze_1/Mean/reduction_indices", "op": "Const", "attr": {"value": {"tensor": {"dtype": "DT_INT32", "tensorShape": {"dim": [{"size": "2"}]}}}, "dtype": {"type": "DT_INT32"}}}, {"name": "StatefulPartitionedCall/functional_177_1/efficientnetv2-b3_1/block6f_se_reshape_1/strided_slice/stack", "op": "Const", "attr": {"value": {"tensor": {"dtype": "DT_INT32", "tensorShape": {"dim": [{"size": "1"}]}}}, "dtype": {"type": "DT_INT32"}}}, {"name": "StatefulPartitionedCall/functional_177_1/efficientnetv2-b3_1/block6f_se_reshape_1/strided_slice/stack_1", "op": "Const", "attr": {"value": {"tensor": {"dtype": "DT_INT32", "tensorShape": {"dim": [{"size": "1"}]}}}, "dtype": {"type": "DT_INT32"}}}, {"name": "StatefulPartitionedCall/functional_177_1/efficientnetv2-b3_1/block6f_se_reshape_1/strided_slice/stack_2", "op": "Const", "attr": {"value": {"tensor": {"dtype": "DT_INT32", "tensorShape": {"dim": [{"size": "1"}]}}}, "dtype": {"type": "DT_INT32"}}}, {"name": "StatefulPartitionedCall/functional_177_1/efficientnetv2-b3_1/block6f_se_reshape_1/Reshape/shape/1", "op": "Const", "attr": {"value": {"tensor": {"dtype": "DT_INT32", "tensorShape": {}}}, "dtype": {"type": "DT_INT32"}}}, {"name": "StatefulPartitionedCall/functional_177_1/efficientnetv2-b3_1/block6f_se_reshape_1/Reshape/shape/2", "op": "Const", "attr": {"value": {"tensor": {"dtype": "DT_INT32", "tensorShape": {}}}, "dtype": {"type": "DT_INT32"}}}, {"name": "StatefulPartitionedCall/functional_177_1/efficientnetv2-b3_1/block6f_se_reshape_1/Reshape/shape/3", "op": "Const", "attr": {"value": {"tensor": {"dtype": "DT_INT32", "tensorShape": {}}}, "dtype": {"type": "DT_INT32"}}}, {"name": "StatefulPartitionedCall/functional_177_1/efficientnetv2-b3_1/block6f_se_reduce_1/convolution/ReadVariableOp", "op": "Const", "attr": {"value": {"tensor": {"dtype": "DT_FLOAT", "tensorShape": {"dim": [{"size": "1"}, {"size": "1"}, {"size": "1392"}, {"size": "58"}]}}}, "dtype": {"type": "DT_FLOAT"}}}, {"name": "StatefulPartitionedCall/functional_177_1/efficientnetv2-b3_1/block6f_se_reduce_1/Squeeze", "op": "Const", "attr": {"value": {"tensor": {"dtype": "DT_FLOAT", "tensorShape": {"dim": [{"size": "58"}]}}}, "dtype": {"type": "DT_FLOAT"}}}, {"name": "StatefulPartitionedCall/functional_177_1/efficientnetv2-b3_1/block6f_se_expand_1/convolution/ReadVariableOp", "op": "Const", "attr": {"value": {"tensor": {"dtype": "DT_FLOAT", "tensorShape": {"dim": [{"size": "1"}, {"size": "1"}, {"size": "58"}, {"size": "1392"}]}}}, "dtype": {"type": "DT_FLOAT"}}}, {"name": "StatefulPartitionedCall/functional_177_1/efficientnetv2-b3_1/block6f_se_expand_1/Squeeze", "op": "Const", "attr": {"value": {"tensor": {"dtype": "DT_FLOAT", "tensorShape": {"dim": [{"size": "1392"}]}}}, "dtype": {"type": "DT_FLOAT"}}}, {"name": "StatefulPartitionedCall/functional_177_1/efficientnetv2-b3_1/block6f_project_conv_1/convolution/merged_input", "op": "Const", "attr": {"value": {"tensor": {"dtype": "DT_FLOAT", "tensorShape": {"dim": [{"size": "1"}, {"size": "1"}, {"size": "1392"}, {"size": "232"}]}}}, "dtype": {"type": "DT_FLOAT"}}}, {"name": "StatefulPartitionedCall/functional_177_1/efficientnetv2-b3_1/block6e_project_bn_1/batchnorm/sub", "op": "Const", "attr": {"value": {"tensor": {"dtype": "DT_FLOAT", "tensorShape": {"dim": [{"size": "1"}, {"size": "1"}, {"size": "1"}, {"size": "232"}]}}}, "dtype": {"type": "DT_FLOAT"}}}, {"name": "StatefulPartitionedCall/functional_177_1/efficientnetv2-b3_1/block6e_expand_conv_1/convolution/merged_input", "op": "Const", "attr": {"value": {"tensor": {"dtype": "DT_FLOAT", "tensorShape": {"dim": [{"size": "1"}, {"size": "1"}, {"size": "232"}, {"size": "1392"}]}}}, "dtype": {"type": "DT_FLOAT"}}}, {"name": "StatefulPartitionedCall/functional_177_1/efficientnetv2-b3_1/block6e_expand_bn_1/batchnorm/sub", "op": "Const", "attr": {"value": {"tensor": {"dtype": "DT_FLOAT", "tensorShape": {"dim": [{"size": "1"}, {"size": "1"}, {"size": "1"}, {"size": "1392"}]}}}, "dtype": {"type": "DT_FLOAT"}}}, {"name": "StatefulPartitionedCall/functional_177_1/efficientnetv2-b3_1/block6e_dwconv2_1/depthwise/ReadVariableOp", "op": "Const", "attr": {"value": {"tensor": {"dtype": "DT_FLOAT", "tensorShape": {"dim": [{"size": "3"}, {"size": "3"}, {"size": "1392"}, {"size": "1"}]}}}, "dtype": {"type": "DT_FLOAT"}}}, {"name": "StatefulPartitionedCall/functional_177_1/efficientnetv2-b3_1/block6e_bn_1/batchnorm/mul", "op": "Const", "attr": {"value": {"tensor": {"dtype": "DT_FLOAT", "tensorShape": {"dim": [{"size": "1"}, {"size": "1"}, {"size": "1"}, {"size": "1392"}]}}}, "dtype": {"type": "DT_FLOAT"}}}, {"name": "StatefulPartitionedCall/functional_177_1/efficientnetv2-b3_1/block6e_bn_1/batchnorm/sub", "op": "Const", "attr": {"value": {"tensor": {"dtype": "DT_FLOAT", "tensorShape": {"dim": [{"size": "1"}, {"size": "1"}, {"size": "1"}, {"size": "1392"}]}}}, "dtype": {"type": "DT_FLOAT"}}}, {"name": "StatefulPartitionedCall/functional_177_1/efficientnetv2-b3_1/block6e_se_squeeze_1/Mean/reduction_indices", "op": "Const", "attr": {"value": {"tensor": {"dtype": "DT_INT32", "tensorShape": {"dim": [{"size": "2"}]}}}, "dtype": {"type": "DT_INT32"}}}, {"name": "StatefulPartitionedCall/functional_177_1/efficientnetv2-b3_1/block6e_se_reshape_1/strided_slice/stack", "op": "Const", "attr": {"value": {"tensor": {"dtype": "DT_INT32", "tensorShape": {"dim": [{"size": "1"}]}}}, "dtype": {"type": "DT_INT32"}}}, {"name": "StatefulPartitionedCall/functional_177_1/efficientnetv2-b3_1/block6e_se_reshape_1/strided_slice/stack_1", "op": "Const", "attr": {"value": {"tensor": {"dtype": "DT_INT32", "tensorShape": {"dim": [{"size": "1"}]}}}, "dtype": {"type": "DT_INT32"}}}, {"name": "StatefulPartitionedCall/functional_177_1/efficientnetv2-b3_1/block6e_se_reshape_1/strided_slice/stack_2", "op": "Const", "attr": {"value": {"tensor": {"dtype": "DT_INT32", "tensorShape": {"dim": [{"size": "1"}]}}}, "dtype": {"type": "DT_INT32"}}}, {"name": "StatefulPartitionedCall/functional_177_1/efficientnetv2-b3_1/block6e_se_reshape_1/Reshape/shape/1", "op": "Const", "attr": {"value": {"tensor": {"dtype": "DT_INT32", "tensorShape": {}}}, "dtype": {"type": "DT_INT32"}}}, {"name": "StatefulPartitionedCall/functional_177_1/efficientnetv2-b3_1/block6e_se_reshape_1/Reshape/shape/2", "op": "Const", "attr": {"value": {"tensor": {"dtype": "DT_INT32", "tensorShape": {}}}, "dtype": {"type": "DT_INT32"}}}, {"name": "StatefulPartitionedCall/functional_177_1/efficientnetv2-b3_1/block6e_se_reshape_1/Reshape/shape/3", "op": "Const", "attr": {"value": {"tensor": {"dtype": "DT_INT32", "tensorShape": {}}}, "dtype": {"type": "DT_INT32"}}}, {"name": "StatefulPartitionedCall/functional_177_1/efficientnetv2-b3_1/block6e_se_reduce_1/convolution/ReadVariableOp", "op": "Const", "attr": {"value": {"tensor": {"dtype": "DT_FLOAT", "tensorShape": {"dim": [{"size": "1"}, {"size": "1"}, {"size": "1392"}, {"size": "58"}]}}}, "dtype": {"type": "DT_FLOAT"}}}, {"name": "StatefulPartitionedCall/functional_177_1/efficientnetv2-b3_1/block6e_se_reduce_1/Squeeze", "op": "Const", "attr": {"value": {"tensor": {"dtype": "DT_FLOAT", "tensorShape": {"dim": [{"size": "58"}]}}}, "dtype": {"type": "DT_FLOAT"}}}, {"name": "StatefulPartitionedCall/functional_177_1/efficientnetv2-b3_1/block6e_se_expand_1/convolution/ReadVariableOp", "op": "Const", "attr": {"value": {"tensor": {"dtype": "DT_FLOAT", "tensorShape": {"dim": [{"size": "1"}, {"size": "1"}, {"size": "58"}, {"size": "1392"}]}}}, "dtype": {"type": "DT_FLOAT"}}}, {"name": "StatefulPartitionedCall/functional_177_1/efficientnetv2-b3_1/block6e_se_expand_1/Squeeze", "op": "Const", "attr": {"value": {"tensor": {"dtype": "DT_FLOAT", "tensorShape": {"dim": [{"size": "1392"}]}}}, "dtype": {"type": "DT_FLOAT"}}}, {"name": "StatefulPartitionedCall/functional_177_1/efficientnetv2-b3_1/block6e_project_conv_1/convolution/merged_input", "op": "Const", "attr": {"value": {"tensor": {"dtype": "DT_FLOAT", "tensorShape": {"dim": [{"size": "1"}, {"size": "1"}, {"size": "1392"}, {"size": "232"}]}}}, "dtype": {"type": "DT_FLOAT"}}}, {"name": "StatefulPartitionedCall/functional_177_1/efficientnetv2-b3_1/block6d_project_bn_1/batchnorm/sub", "op": "Const", "attr": {"value": {"tensor": {"dtype": "DT_FLOAT", "tensorShape": {"dim": [{"size": "1"}, {"size": "1"}, {"size": "1"}, {"size": "232"}]}}}, "dtype": {"type": "DT_FLOAT"}}}, {"name": "StatefulPartitionedCall/functional_177_1/efficientnetv2-b3_1/block6d_expand_conv_1/convolution/merged_input", "op": "Const", "attr": {"value": {"tensor": {"dtype": "DT_FLOAT", "tensorShape": {"dim": [{"size": "1"}, {"size": "1"}, {"size": "232"}, {"size": "1392"}]}}}, "dtype": {"type": "DT_FLOAT"}}}, {"name": "StatefulPartitionedCall/functional_177_1/efficientnetv2-b3_1/block6d_expand_bn_1/batchnorm/sub", "op": "Const", "attr": {"value": {"tensor": {"dtype": "DT_FLOAT", "tensorShape": {"dim": [{"size": "1"}, {"size": "1"}, {"size": "1"}, {"size": "1392"}]}}}, "dtype": {"type": "DT_FLOAT"}}}, {"name": "StatefulPartitionedCall/functional_177_1/efficientnetv2-b3_1/block6d_dwconv2_1/depthwise/ReadVariableOp", "op": "Const", "attr": {"value": {"tensor": {"dtype": "DT_FLOAT", "tensorShape": {"dim": [{"size": "3"}, {"size": "3"}, {"size": "1392"}, {"size": "1"}]}}}, "dtype": {"type": "DT_FLOAT"}}}, {"name": "StatefulPartitionedCall/functional_177_1/efficientnetv2-b3_1/block6d_bn_1/batchnorm/mul", "op": "Const", "attr": {"value": {"tensor": {"dtype": "DT_FLOAT", "tensorShape": {"dim": [{"size": "1"}, {"size": "1"}, {"size": "1"}, {"size": "1392"}]}}}, "dtype": {"type": "DT_FLOAT"}}}, {"name": "StatefulPartitionedCall/functional_177_1/efficientnetv2-b3_1/block6d_bn_1/batchnorm/sub", "op": "Const", "attr": {"value": {"tensor": {"dtype": "DT_FLOAT", "tensorShape": {"dim": [{"size": "1"}, {"size": "1"}, {"size": "1"}, {"size": "1392"}]}}}, "dtype": {"type": "DT_FLOAT"}}}, {"name": "StatefulPartitionedCall/functional_177_1/efficientnetv2-b3_1/block6d_se_squeeze_1/Mean/reduction_indices", "op": "Const", "attr": {"value": {"tensor": {"dtype": "DT_INT32", "tensorShape": {"dim": [{"size": "2"}]}}}, "dtype": {"type": "DT_INT32"}}}, {"name": "StatefulPartitionedCall/functional_177_1/efficientnetv2-b3_1/block6d_se_reshape_1/strided_slice/stack", "op": "Const", "attr": {"value": {"tensor": {"dtype": "DT_INT32", "tensorShape": {"dim": [{"size": "1"}]}}}, "dtype": {"type": "DT_INT32"}}}, {"name": "StatefulPartitionedCall/functional_177_1/efficientnetv2-b3_1/block6d_se_reshape_1/strided_slice/stack_1", "op": "Const", "attr": {"value": {"tensor": {"dtype": "DT_INT32", "tensorShape": {"dim": [{"size": "1"}]}}}, "dtype": {"type": "DT_INT32"}}}, {"name": "StatefulPartitionedCall/functional_177_1/efficientnetv2-b3_1/block6d_se_reshape_1/strided_slice/stack_2", "op": "Const", "attr": {"value": {"tensor": {"dtype": "DT_INT32", "tensorShape": {"dim": [{"size": "1"}]}}}, "dtype": {"type": "DT_INT32"}}}, {"name": "StatefulPartitionedCall/functional_177_1/efficientnetv2-b3_1/block6d_se_reshape_1/Reshape/shape/1", "op": "Const", "attr": {"value": {"tensor": {"dtype": "DT_INT32", "tensorShape": {}}}, "dtype": {"type": "DT_INT32"}}}, {"name": "StatefulPartitionedCall/functional_177_1/efficientnetv2-b3_1/block6d_se_reshape_1/Reshape/shape/2", "op": "Const", "attr": {"value": {"tensor": {"dtype": "DT_INT32", "tensorShape": {}}}, "dtype": {"type": "DT_INT32"}}}, {"name": "StatefulPartitionedCall/functional_177_1/efficientnetv2-b3_1/block6d_se_reshape_1/Reshape/shape/3", "op": "Const", "attr": {"value": {"tensor": {"dtype": "DT_INT32", "tensorShape": {}}}, "dtype": {"type": "DT_INT32"}}}, {"name": "StatefulPartitionedCall/functional_177_1/efficientnetv2-b3_1/block6d_se_reduce_1/convolution/ReadVariableOp", "op": "Const", "attr": {"value": {"tensor": {"dtype": "DT_FLOAT", "tensorShape": {"dim": [{"size": "1"}, {"size": "1"}, {"size": "1392"}, {"size": "58"}]}}}, "dtype": {"type": "DT_FLOAT"}}}, {"name": "StatefulPartitionedCall/functional_177_1/efficientnetv2-b3_1/block6d_se_reduce_1/Squeeze", "op": "Const", "attr": {"value": {"tensor": {"dtype": "DT_FLOAT", "tensorShape": {"dim": [{"size": "58"}]}}}, "dtype": {"type": "DT_FLOAT"}}}, {"name": "StatefulPartitionedCall/functional_177_1/efficientnetv2-b3_1/block6d_se_expand_1/convolution/ReadVariableOp", "op": "Const", "attr": {"value": {"tensor": {"dtype": "DT_FLOAT", "tensorShape": {"dim": [{"size": "1"}, {"size": "1"}, {"size": "58"}, {"size": "1392"}]}}}, "dtype": {"type": "DT_FLOAT"}}}, {"name": "StatefulPartitionedCall/functional_177_1/efficientnetv2-b3_1/block6d_se_expand_1/Squeeze", "op": "Const", "attr": {"value": {"tensor": {"dtype": "DT_FLOAT", "tensorShape": {"dim": [{"size": "1392"}]}}}, "dtype": {"type": "DT_FLOAT"}}}, {"name": "StatefulPartitionedCall/functional_177_1/efficientnetv2-b3_1/block6d_project_conv_1/convolution/merged_input", "op": "Const", "attr": {"value": {"tensor": {"dtype": "DT_FLOAT", "tensorShape": {"dim": [{"size": "1"}, {"size": "1"}, {"size": "1392"}, {"size": "232"}]}}}, "dtype": {"type": "DT_FLOAT"}}}, {"name": "StatefulPartitionedCall/functional_177_1/efficientnetv2-b3_1/block6c_project_bn_1/batchnorm/sub", "op": "Const", "attr": {"value": {"tensor": {"dtype": "DT_FLOAT", "tensorShape": {"dim": [{"size": "1"}, {"size": "1"}, {"size": "1"}, {"size": "232"}]}}}, "dtype": {"type": "DT_FLOAT"}}}, {"name": "StatefulPartitionedCall/functional_177_1/efficientnetv2-b3_1/block6c_expand_conv_1/convolution/merged_input", "op": "Const", "attr": {"value": {"tensor": {"dtype": "DT_FLOAT", "tensorShape": {"dim": [{"size": "1"}, {"size": "1"}, {"size": "232"}, {"size": "1392"}]}}}, "dtype": {"type": "DT_FLOAT"}}}, {"name": "StatefulPartitionedCall/functional_177_1/efficientnetv2-b3_1/block6c_expand_bn_1/batchnorm/sub", "op": "Const", "attr": {"value": {"tensor": {"dtype": "DT_FLOAT", "tensorShape": {"dim": [{"size": "1"}, {"size": "1"}, {"size": "1"}, {"size": "1392"}]}}}, "dtype": {"type": "DT_FLOAT"}}}, {"name": "StatefulPartitionedCall/functional_177_1/efficientnetv2-b3_1/block6c_dwconv2_1/depthwise/ReadVariableOp", "op": "Const", "attr": {"value": {"tensor": {"dtype": "DT_FLOAT", "tensorShape": {"dim": [{"size": "3"}, {"size": "3"}, {"size": "1392"}, {"size": "1"}]}}}, "dtype": {"type": "DT_FLOAT"}}}, {"name": "StatefulPartitionedCall/functional_177_1/efficientnetv2-b3_1/block6c_bn_1/batchnorm/mul", "op": "Const", "attr": {"value": {"tensor": {"dtype": "DT_FLOAT", "tensorShape": {"dim": [{"size": "1"}, {"size": "1"}, {"size": "1"}, {"size": "1392"}]}}}, "dtype": {"type": "DT_FLOAT"}}}, {"name": "StatefulPartitionedCall/functional_177_1/efficientnetv2-b3_1/block6c_bn_1/batchnorm/sub", "op": "Const", "attr": {"value": {"tensor": {"dtype": "DT_FLOAT", "tensorShape": {"dim": [{"size": "1"}, {"size": "1"}, {"size": "1"}, {"size": "1392"}]}}}, "dtype": {"type": "DT_FLOAT"}}}, {"name": "StatefulPartitionedCall/functional_177_1/efficientnetv2-b3_1/block6c_se_squeeze_1/Mean/reduction_indices", "op": "Const", "attr": {"value": {"tensor": {"dtype": "DT_INT32", "tensorShape": {"dim": [{"size": "2"}]}}}, "dtype": {"type": "DT_INT32"}}}, {"name": "StatefulPartitionedCall/functional_177_1/efficientnetv2-b3_1/block6c_se_reshape_1/strided_slice/stack", "op": "Const", "attr": {"value": {"tensor": {"dtype": "DT_INT32", "tensorShape": {"dim": [{"size": "1"}]}}}, "dtype": {"type": "DT_INT32"}}}, {"name": "StatefulPartitionedCall/functional_177_1/efficientnetv2-b3_1/block6c_se_reshape_1/strided_slice/stack_1", "op": "Const", "attr": {"value": {"tensor": {"dtype": "DT_INT32", "tensorShape": {"dim": [{"size": "1"}]}}}, "dtype": {"type": "DT_INT32"}}}, {"name": "StatefulPartitionedCall/functional_177_1/efficientnetv2-b3_1/block6c_se_reshape_1/strided_slice/stack_2", "op": "Const", "attr": {"value": {"tensor": {"dtype": "DT_INT32", "tensorShape": {"dim": [{"size": "1"}]}}}, "dtype": {"type": "DT_INT32"}}}, {"name": "StatefulPartitionedCall/functional_177_1/efficientnetv2-b3_1/block6c_se_reshape_1/Reshape/shape/1", "op": "Const", "attr": {"value": {"tensor": {"dtype": "DT_INT32", "tensorShape": {}}}, "dtype": {"type": "DT_INT32"}}}, {"name": "StatefulPartitionedCall/functional_177_1/efficientnetv2-b3_1/block6c_se_reshape_1/Reshape/shape/2", "op": "Const", "attr": {"value": {"tensor": {"dtype": "DT_INT32", "tensorShape": {}}}, "dtype": {"type": "DT_INT32"}}}, {"name": "StatefulPartitionedCall/functional_177_1/efficientnetv2-b3_1/block6c_se_reshape_1/Reshape/shape/3", "op": "Const", "attr": {"value": {"tensor": {"dtype": "DT_INT32", "tensorShape": {}}}, "dtype": {"type": "DT_INT32"}}}, {"name": "StatefulPartitionedCall/functional_177_1/efficientnetv2-b3_1/block6c_se_reduce_1/convolution/ReadVariableOp", "op": "Const", "attr": {"value": {"tensor": {"dtype": "DT_FLOAT", "tensorShape": {"dim": [{"size": "1"}, {"size": "1"}, {"size": "1392"}, {"size": "58"}]}}}, "dtype": {"type": "DT_FLOAT"}}}, {"name": "StatefulPartitionedCall/functional_177_1/efficientnetv2-b3_1/block6c_se_reduce_1/Squeeze", "op": "Const", "attr": {"value": {"tensor": {"dtype": "DT_FLOAT", "tensorShape": {"dim": [{"size": "58"}]}}}, "dtype": {"type": "DT_FLOAT"}}}, {"name": "StatefulPartitionedCall/functional_177_1/efficientnetv2-b3_1/block6c_se_expand_1/convolution/ReadVariableOp", "op": "Const", "attr": {"value": {"tensor": {"dtype": "DT_FLOAT", "tensorShape": {"dim": [{"size": "1"}, {"size": "1"}, {"size": "58"}, {"size": "1392"}]}}}, "dtype": {"type": "DT_FLOAT"}}}, {"name": "StatefulPartitionedCall/functional_177_1/efficientnetv2-b3_1/block6c_se_expand_1/Squeeze", "op": "Const", "attr": {"value": {"tensor": {"dtype": "DT_FLOAT", "tensorShape": {"dim": [{"size": "1392"}]}}}, "dtype": {"type": "DT_FLOAT"}}}, {"name": "StatefulPartitionedCall/functional_177_1/efficientnetv2-b3_1/block6c_project_conv_1/convolution/merged_input", "op": "Const", "attr": {"value": {"tensor": {"dtype": "DT_FLOAT", "tensorShape": {"dim": [{"size": "1"}, {"size": "1"}, {"size": "1392"}, {"size": "232"}]}}}, "dtype": {"type": "DT_FLOAT"}}}, {"name": "StatefulPartitionedCall/functional_177_1/efficientnetv2-b3_1/block6b_project_bn_1/batchnorm/sub", "op": "Const", "attr": {"value": {"tensor": {"dtype": "DT_FLOAT", "tensorShape": {"dim": [{"size": "1"}, {"size": "1"}, {"size": "1"}, {"size": "232"}]}}}, "dtype": {"type": "DT_FLOAT"}}}, {"name": "StatefulPartitionedCall/functional_177_1/efficientnetv2-b3_1/block6b_expand_conv_1/convolution/merged_input", "op": "Const", "attr": {"value": {"tensor": {"dtype": "DT_FLOAT", "tensorShape": {"dim": [{"size": "1"}, {"size": "1"}, {"size": "232"}, {"size": "1392"}]}}}, "dtype": {"type": "DT_FLOAT"}}}, {"name": "StatefulPartitionedCall/functional_177_1/efficientnetv2-b3_1/block6b_expand_bn_1/batchnorm/sub", "op": "Const", "attr": {"value": {"tensor": {"dtype": "DT_FLOAT", "tensorShape": {"dim": [{"size": "1"}, {"size": "1"}, {"size": "1"}, {"size": "1392"}]}}}, "dtype": {"type": "DT_FLOAT"}}}, {"name": "StatefulPartitionedCall/functional_177_1/efficientnetv2-b3_1/block6b_dwconv2_1/depthwise/ReadVariableOp", "op": "Const", "attr": {"value": {"tensor": {"dtype": "DT_FLOAT", "tensorShape": {"dim": [{"size": "3"}, {"size": "3"}, {"size": "1392"}, {"size": "1"}]}}}, "dtype": {"type": "DT_FLOAT"}}}, {"name": "StatefulPartitionedCall/functional_177_1/efficientnetv2-b3_1/block6b_bn_1/batchnorm/mul", "op": "Const", "attr": {"value": {"tensor": {"dtype": "DT_FLOAT", "tensorShape": {"dim": [{"size": "1"}, {"size": "1"}, {"size": "1"}, {"size": "1392"}]}}}, "dtype": {"type": "DT_FLOAT"}}}, {"name": "StatefulPartitionedCall/functional_177_1/efficientnetv2-b3_1/block6b_bn_1/batchnorm/sub", "op": "Const", "attr": {"value": {"tensor": {"dtype": "DT_FLOAT", "tensorShape": {"dim": [{"size": "1"}, {"size": "1"}, {"size": "1"}, {"size": "1392"}]}}}, "dtype": {"type": "DT_FLOAT"}}}, {"name": "StatefulPartitionedCall/functional_177_1/efficientnetv2-b3_1/block6b_se_squeeze_1/Mean/reduction_indices", "op": "Const", "attr": {"value": {"tensor": {"dtype": "DT_INT32", "tensorShape": {"dim": [{"size": "2"}]}}}, "dtype": {"type": "DT_INT32"}}}, {"name": "StatefulPartitionedCall/functional_177_1/efficientnetv2-b3_1/block6b_se_reshape_1/strided_slice/stack", "op": "Const", "attr": {"value": {"tensor": {"dtype": "DT_INT32", "tensorShape": {"dim": [{"size": "1"}]}}}, "dtype": {"type": "DT_INT32"}}}, {"name": "StatefulPartitionedCall/functional_177_1/efficientnetv2-b3_1/block6b_se_reshape_1/strided_slice/stack_1", "op": "Const", "attr": {"value": {"tensor": {"dtype": "DT_INT32", "tensorShape": {"dim": [{"size": "1"}]}}}, "dtype": {"type": "DT_INT32"}}}, {"name": "StatefulPartitionedCall/functional_177_1/efficientnetv2-b3_1/block6b_se_reshape_1/strided_slice/stack_2", "op": "Const", "attr": {"value": {"tensor": {"dtype": "DT_INT32", "tensorShape": {"dim": [{"size": "1"}]}}}, "dtype": {"type": "DT_INT32"}}}, {"name": "StatefulPartitionedCall/functional_177_1/efficientnetv2-b3_1/block6b_se_reshape_1/Reshape/shape/1", "op": "Const", "attr": {"value": {"tensor": {"dtype": "DT_INT32", "tensorShape": {}}}, "dtype": {"type": "DT_INT32"}}}, {"name": "StatefulPartitionedCall/functional_177_1/efficientnetv2-b3_1/block6b_se_reshape_1/Reshape/shape/2", "op": "Const", "attr": {"value": {"tensor": {"dtype": "DT_INT32", "tensorShape": {}}}, "dtype": {"type": "DT_INT32"}}}, {"name": "StatefulPartitionedCall/functional_177_1/efficientnetv2-b3_1/block6b_se_reshape_1/Reshape/shape/3", "op": "Const", "attr": {"value": {"tensor": {"dtype": "DT_INT32", "tensorShape": {}}}, "dtype": {"type": "DT_INT32"}}}, {"name": "StatefulPartitionedCall/functional_177_1/efficientnetv2-b3_1/block6b_se_reduce_1/convolution/ReadVariableOp", "op": "Const", "attr": {"value": {"tensor": {"dtype": "DT_FLOAT", "tensorShape": {"dim": [{"size": "1"}, {"size": "1"}, {"size": "1392"}, {"size": "58"}]}}}, "dtype": {"type": "DT_FLOAT"}}}, {"name": "StatefulPartitionedCall/functional_177_1/efficientnetv2-b3_1/block6b_se_reduce_1/Squeeze", "op": "Const", "attr": {"value": {"tensor": {"dtype": "DT_FLOAT", "tensorShape": {"dim": [{"size": "58"}]}}}, "dtype": {"type": "DT_FLOAT"}}}, {"name": "StatefulPartitionedCall/functional_177_1/efficientnetv2-b3_1/block6b_se_expand_1/convolution/ReadVariableOp", "op": "Const", "attr": {"value": {"tensor": {"dtype": "DT_FLOAT", "tensorShape": {"dim": [{"size": "1"}, {"size": "1"}, {"size": "58"}, {"size": "1392"}]}}}, "dtype": {"type": "DT_FLOAT"}}}, {"name": "StatefulPartitionedCall/functional_177_1/efficientnetv2-b3_1/block6b_se_expand_1/Squeeze", "op": "Const", "attr": {"value": {"tensor": {"dtype": "DT_FLOAT", "tensorShape": {"dim": [{"size": "1392"}]}}}, "dtype": {"type": "DT_FLOAT"}}}, {"name": "StatefulPartitionedCall/functional_177_1/efficientnetv2-b3_1/block6b_project_conv_1/convolution/merged_input", "op": "Const", "attr": {"value": {"tensor": {"dtype": "DT_FLOAT", "tensorShape": {"dim": [{"size": "1"}, {"size": "1"}, {"size": "1392"}, {"size": "232"}]}}}, "dtype": {"type": "DT_FLOAT"}}}, {"name": "StatefulPartitionedCall/functional_177_1/efficientnetv2-b3_1/block5g_project_bn_1/batchnorm/sub", "op": "Const", "attr": {"value": {"tensor": {"dtype": "DT_FLOAT", "tensorShape": {"dim": [{"size": "1"}, {"size": "1"}, {"size": "1"}, {"size": "136"}]}}}, "dtype": {"type": "DT_FLOAT"}}}, {"name": "StatefulPartitionedCall/functional_177_1/efficientnetv2-b3_1/block5g_expand_conv_1/convolution/merged_input", "op": "Const", "attr": {"value": {"tensor": {"dtype": "DT_FLOAT", "tensorShape": {"dim": [{"size": "1"}, {"size": "1"}, {"size": "136"}, {"size": "816"}]}}}, "dtype": {"type": "DT_FLOAT"}}}, {"name": "StatefulPartitionedCall/functional_177_1/efficientnetv2-b3_1/block5g_expand_bn_1/batchnorm/sub", "op": "Const", "attr": {"value": {"tensor": {"dtype": "DT_FLOAT", "tensorShape": {"dim": [{"size": "1"}, {"size": "1"}, {"size": "1"}, {"size": "816"}]}}}, "dtype": {"type": "DT_FLOAT"}}}, {"name": "StatefulPartitionedCall/functional_177_1/efficientnetv2-b3_1/block5g_dwconv2_1/depthwise/ReadVariableOp", "op": "Const", "attr": {"value": {"tensor": {"dtype": "DT_FLOAT", "tensorShape": {"dim": [{"size": "3"}, {"size": "3"}, {"size": "816"}, {"size": "1"}]}}}, "dtype": {"type": "DT_FLOAT"}}}, {"name": "StatefulPartitionedCall/functional_177_1/efficientnetv2-b3_1/block5g_bn_1/batchnorm/mul", "op": "Const", "attr": {"value": {"tensor": {"dtype": "DT_FLOAT", "tensorShape": {"dim": [{"size": "1"}, {"size": "1"}, {"size": "1"}, {"size": "816"}]}}}, "dtype": {"type": "DT_FLOAT"}}}, {"name": "StatefulPartitionedCall/functional_177_1/efficientnetv2-b3_1/block5g_bn_1/batchnorm/sub", "op": "Const", "attr": {"value": {"tensor": {"dtype": "DT_FLOAT", "tensorShape": {"dim": [{"size": "1"}, {"size": "1"}, {"size": "1"}, {"size": "816"}]}}}, "dtype": {"type": "DT_FLOAT"}}}, {"name": "StatefulPartitionedCall/functional_177_1/efficientnetv2-b3_1/block5g_se_squeeze_1/Mean/reduction_indices", "op": "Const", "attr": {"value": {"tensor": {"dtype": "DT_INT32", "tensorShape": {"dim": [{"size": "2"}]}}}, "dtype": {"type": "DT_INT32"}}}, {"name": "StatefulPartitionedCall/functional_177_1/efficientnetv2-b3_1/block5g_se_reshape_1/strided_slice/stack", "op": "Const", "attr": {"value": {"tensor": {"dtype": "DT_INT32", "tensorShape": {"dim": [{"size": "1"}]}}}, "dtype": {"type": "DT_INT32"}}}, {"name": "StatefulPartitionedCall/functional_177_1/efficientnetv2-b3_1/block5g_se_reshape_1/strided_slice/stack_1", "op": "Const", "attr": {"value": {"tensor": {"dtype": "DT_INT32", "tensorShape": {"dim": [{"size": "1"}]}}}, "dtype": {"type": "DT_INT32"}}}, {"name": "StatefulPartitionedCall/functional_177_1/efficientnetv2-b3_1/block5g_se_reshape_1/strided_slice/stack_2", "op": "Const", "attr": {"value": {"tensor": {"dtype": "DT_INT32", "tensorShape": {"dim": [{"size": "1"}]}}}, "dtype": {"type": "DT_INT32"}}}, {"name": "StatefulPartitionedCall/functional_177_1/efficientnetv2-b3_1/block5g_se_reshape_1/Reshape/shape/1", "op": "Const", "attr": {"value": {"tensor": {"dtype": "DT_INT32", "tensorShape": {}}}, "dtype": {"type": "DT_INT32"}}}, {"name": "StatefulPartitionedCall/functional_177_1/efficientnetv2-b3_1/block5g_se_reshape_1/Reshape/shape/2", "op": "Const", "attr": {"value": {"tensor": {"dtype": "DT_INT32", "tensorShape": {}}}, "dtype": {"type": "DT_INT32"}}}, {"name": "StatefulPartitionedCall/functional_177_1/efficientnetv2-b3_1/block5g_se_reshape_1/Reshape/shape/3", "op": "Const", "attr": {"value": {"tensor": {"dtype": "DT_INT32", "tensorShape": {}}}, "dtype": {"type": "DT_INT32"}}}, {"name": "StatefulPartitionedCall/functional_177_1/efficientnetv2-b3_1/block5g_se_reduce_1/convolution/ReadVariableOp", "op": "Const", "attr": {"value": {"tensor": {"dtype": "DT_FLOAT", "tensorShape": {"dim": [{"size": "1"}, {"size": "1"}, {"size": "816"}, {"size": "34"}]}}}, "dtype": {"type": "DT_FLOAT"}}}, {"name": "StatefulPartitionedCall/functional_177_1/efficientnetv2-b3_1/block5g_se_reduce_1/Squeeze", "op": "Const", "attr": {"value": {"tensor": {"dtype": "DT_FLOAT", "tensorShape": {"dim": [{"size": "34"}]}}}, "dtype": {"type": "DT_FLOAT"}}}, {"name": "StatefulPartitionedCall/functional_177_1/efficientnetv2-b3_1/block5g_se_expand_1/convolution/ReadVariableOp", "op": "Const", "attr": {"value": {"tensor": {"dtype": "DT_FLOAT", "tensorShape": {"dim": [{"size": "1"}, {"size": "1"}, {"size": "34"}, {"size": "816"}]}}}, "dtype": {"type": "DT_FLOAT"}}}, {"name": "StatefulPartitionedCall/functional_177_1/efficientnetv2-b3_1/block5g_se_expand_1/Squeeze", "op": "Const", "attr": {"value": {"tensor": {"dtype": "DT_FLOAT", "tensorShape": {"dim": [{"size": "816"}]}}}, "dtype": {"type": "DT_FLOAT"}}}, {"name": "StatefulPartitionedCall/functional_177_1/efficientnetv2-b3_1/block5g_project_conv_1/convolution/merged_input", "op": "Const", "attr": {"value": {"tensor": {"dtype": "DT_FLOAT", "tensorShape": {"dim": [{"size": "1"}, {"size": "1"}, {"size": "816"}, {"size": "136"}]}}}, "dtype": {"type": "DT_FLOAT"}}}, {"name": "StatefulPartitionedCall/functional_177_1/efficientnetv2-b3_1/block5f_project_bn_1/batchnorm/sub", "op": "Const", "attr": {"value": {"tensor": {"dtype": "DT_FLOAT", "tensorShape": {"dim": [{"size": "1"}, {"size": "1"}, {"size": "1"}, {"size": "136"}]}}}, "dtype": {"type": "DT_FLOAT"}}}, {"name": "StatefulPartitionedCall/functional_177_1/efficientnetv2-b3_1/block5f_expand_conv_1/convolution/merged_input", "op": "Const", "attr": {"value": {"tensor": {"dtype": "DT_FLOAT", "tensorShape": {"dim": [{"size": "1"}, {"size": "1"}, {"size": "136"}, {"size": "816"}]}}}, "dtype": {"type": "DT_FLOAT"}}}, {"name": "StatefulPartitionedCall/functional_177_1/efficientnetv2-b3_1/block5f_expand_bn_1/batchnorm/sub", "op": "Const", "attr": {"value": {"tensor": {"dtype": "DT_FLOAT", "tensorShape": {"dim": [{"size": "1"}, {"size": "1"}, {"size": "1"}, {"size": "816"}]}}}, "dtype": {"type": "DT_FLOAT"}}}, {"name": "StatefulPartitionedCall/functional_177_1/efficientnetv2-b3_1/block5f_dwconv2_1/depthwise/ReadVariableOp", "op": "Const", "attr": {"value": {"tensor": {"dtype": "DT_FLOAT", "tensorShape": {"dim": [{"size": "3"}, {"size": "3"}, {"size": "816"}, {"size": "1"}]}}}, "dtype": {"type": "DT_FLOAT"}}}, {"name": "StatefulPartitionedCall/functional_177_1/efficientnetv2-b3_1/block5f_bn_1/batchnorm/mul", "op": "Const", "attr": {"value": {"tensor": {"dtype": "DT_FLOAT", "tensorShape": {"dim": [{"size": "1"}, {"size": "1"}, {"size": "1"}, {"size": "816"}]}}}, "dtype": {"type": "DT_FLOAT"}}}, {"name": "StatefulPartitionedCall/functional_177_1/efficientnetv2-b3_1/block5f_bn_1/batchnorm/sub", "op": "Const", "attr": {"value": {"tensor": {"dtype": "DT_FLOAT", "tensorShape": {"dim": [{"size": "1"}, {"size": "1"}, {"size": "1"}, {"size": "816"}]}}}, "dtype": {"type": "DT_FLOAT"}}}, {"name": "StatefulPartitionedCall/functional_177_1/efficientnetv2-b3_1/block5f_se_squeeze_1/Mean/reduction_indices", "op": "Const", "attr": {"value": {"tensor": {"dtype": "DT_INT32", "tensorShape": {"dim": [{"size": "2"}]}}}, "dtype": {"type": "DT_INT32"}}}, {"name": "StatefulPartitionedCall/functional_177_1/efficientnetv2-b3_1/block5f_se_reshape_1/strided_slice/stack", "op": "Const", "attr": {"value": {"tensor": {"dtype": "DT_INT32", "tensorShape": {"dim": [{"size": "1"}]}}}, "dtype": {"type": "DT_INT32"}}}, {"name": "StatefulPartitionedCall/functional_177_1/efficientnetv2-b3_1/block5f_se_reshape_1/strided_slice/stack_1", "op": "Const", "attr": {"value": {"tensor": {"dtype": "DT_INT32", "tensorShape": {"dim": [{"size": "1"}]}}}, "dtype": {"type": "DT_INT32"}}}, {"name": "StatefulPartitionedCall/functional_177_1/efficientnetv2-b3_1/block5f_se_reshape_1/strided_slice/stack_2", "op": "Const", "attr": {"value": {"tensor": {"dtype": "DT_INT32", "tensorShape": {"dim": [{"size": "1"}]}}}, "dtype": {"type": "DT_INT32"}}}, {"name": "StatefulPartitionedCall/functional_177_1/efficientnetv2-b3_1/block5f_se_reshape_1/Reshape/shape/1", "op": "Const", "attr": {"value": {"tensor": {"dtype": "DT_INT32", "tensorShape": {}}}, "dtype": {"type": "DT_INT32"}}}, {"name": "StatefulPartitionedCall/functional_177_1/efficientnetv2-b3_1/block5f_se_reshape_1/Reshape/shape/2", "op": "Const", "attr": {"value": {"tensor": {"dtype": "DT_INT32", "tensorShape": {}}}, "dtype": {"type": "DT_INT32"}}}, {"name": "StatefulPartitionedCall/functional_177_1/efficientnetv2-b3_1/block5f_se_reshape_1/Reshape/shape/3", "op": "Const", "attr": {"value": {"tensor": {"dtype": "DT_INT32", "tensorShape": {}}}, "dtype": {"type": "DT_INT32"}}}, {"name": "StatefulPartitionedCall/functional_177_1/efficientnetv2-b3_1/block5f_se_reduce_1/convolution/ReadVariableOp", "op": "Const", "attr": {"value": {"tensor": {"dtype": "DT_FLOAT", "tensorShape": {"dim": [{"size": "1"}, {"size": "1"}, {"size": "816"}, {"size": "34"}]}}}, "dtype": {"type": "DT_FLOAT"}}}, {"name": "StatefulPartitionedCall/functional_177_1/efficientnetv2-b3_1/block5f_se_reduce_1/Squeeze", "op": "Const", "attr": {"value": {"tensor": {"dtype": "DT_FLOAT", "tensorShape": {"dim": [{"size": "34"}]}}}, "dtype": {"type": "DT_FLOAT"}}}, {"name": "StatefulPartitionedCall/functional_177_1/efficientnetv2-b3_1/block5f_se_expand_1/convolution/ReadVariableOp", "op": "Const", "attr": {"value": {"tensor": {"dtype": "DT_FLOAT", "tensorShape": {"dim": [{"size": "1"}, {"size": "1"}, {"size": "34"}, {"size": "816"}]}}}, "dtype": {"type": "DT_FLOAT"}}}, {"name": "StatefulPartitionedCall/functional_177_1/efficientnetv2-b3_1/block5f_se_expand_1/Squeeze", "op": "Const", "attr": {"value": {"tensor": {"dtype": "DT_FLOAT", "tensorShape": {"dim": [{"size": "816"}]}}}, "dtype": {"type": "DT_FLOAT"}}}, {"name": "StatefulPartitionedCall/functional_177_1/efficientnetv2-b3_1/block5f_project_conv_1/convolution/merged_input", "op": "Const", "attr": {"value": {"tensor": {"dtype": "DT_FLOAT", "tensorShape": {"dim": [{"size": "1"}, {"size": "1"}, {"size": "816"}, {"size": "136"}]}}}, "dtype": {"type": "DT_FLOAT"}}}, {"name": "StatefulPartitionedCall/functional_177_1/efficientnetv2-b3_1/block5e_project_bn_1/batchnorm/sub", "op": "Const", "attr": {"value": {"tensor": {"dtype": "DT_FLOAT", "tensorShape": {"dim": [{"size": "1"}, {"size": "1"}, {"size": "1"}, {"size": "136"}]}}}, "dtype": {"type": "DT_FLOAT"}}}, {"name": "StatefulPartitionedCall/functional_177_1/efficientnetv2-b3_1/block5e_expand_conv_1/convolution/merged_input", "op": "Const", "attr": {"value": {"tensor": {"dtype": "DT_FLOAT", "tensorShape": {"dim": [{"size": "1"}, {"size": "1"}, {"size": "136"}, {"size": "816"}]}}}, "dtype": {"type": "DT_FLOAT"}}}, {"name": "StatefulPartitionedCall/functional_177_1/efficientnetv2-b3_1/block5e_expand_bn_1/batchnorm/sub", "op": "Const", "attr": {"value": {"tensor": {"dtype": "DT_FLOAT", "tensorShape": {"dim": [{"size": "1"}, {"size": "1"}, {"size": "1"}, {"size": "816"}]}}}, "dtype": {"type": "DT_FLOAT"}}}, {"name": "StatefulPartitionedCall/functional_177_1/efficientnetv2-b3_1/block5e_dwconv2_1/depthwise/ReadVariableOp", "op": "Const", "attr": {"value": {"tensor": {"dtype": "DT_FLOAT", "tensorShape": {"dim": [{"size": "3"}, {"size": "3"}, {"size": "816"}, {"size": "1"}]}}}, "dtype": {"type": "DT_FLOAT"}}}, {"name": "StatefulPartitionedCall/functional_177_1/efficientnetv2-b3_1/block5e_bn_1/batchnorm/mul", "op": "Const", "attr": {"value": {"tensor": {"dtype": "DT_FLOAT", "tensorShape": {"dim": [{"size": "1"}, {"size": "1"}, {"size": "1"}, {"size": "816"}]}}}, "dtype": {"type": "DT_FLOAT"}}}, {"name": "StatefulPartitionedCall/functional_177_1/efficientnetv2-b3_1/block5e_bn_1/batchnorm/sub", "op": "Const", "attr": {"value": {"tensor": {"dtype": "DT_FLOAT", "tensorShape": {"dim": [{"size": "1"}, {"size": "1"}, {"size": "1"}, {"size": "816"}]}}}, "dtype": {"type": "DT_FLOAT"}}}, {"name": "StatefulPartitionedCall/functional_177_1/efficientnetv2-b3_1/block5e_se_squeeze_1/Mean/reduction_indices", "op": "Const", "attr": {"value": {"tensor": {"dtype": "DT_INT32", "tensorShape": {"dim": [{"size": "2"}]}}}, "dtype": {"type": "DT_INT32"}}}, {"name": "StatefulPartitionedCall/functional_177_1/efficientnetv2-b3_1/block5e_se_reshape_1/strided_slice/stack", "op": "Const", "attr": {"value": {"tensor": {"dtype": "DT_INT32", "tensorShape": {"dim": [{"size": "1"}]}}}, "dtype": {"type": "DT_INT32"}}}, {"name": "StatefulPartitionedCall/functional_177_1/efficientnetv2-b3_1/block5e_se_reshape_1/strided_slice/stack_1", "op": "Const", "attr": {"value": {"tensor": {"dtype": "DT_INT32", "tensorShape": {"dim": [{"size": "1"}]}}}, "dtype": {"type": "DT_INT32"}}}, {"name": "StatefulPartitionedCall/functional_177_1/efficientnetv2-b3_1/block5e_se_reshape_1/strided_slice/stack_2", "op": "Const", "attr": {"value": {"tensor": {"dtype": "DT_INT32", "tensorShape": {"dim": [{"size": "1"}]}}}, "dtype": {"type": "DT_INT32"}}}, {"name": "StatefulPartitionedCall/functional_177_1/efficientnetv2-b3_1/block5e_se_reshape_1/Reshape/shape/1", "op": "Const", "attr": {"value": {"tensor": {"dtype": "DT_INT32", "tensorShape": {}}}, "dtype": {"type": "DT_INT32"}}}, {"name": "StatefulPartitionedCall/functional_177_1/efficientnetv2-b3_1/block5e_se_reshape_1/Reshape/shape/2", "op": "Const", "attr": {"value": {"tensor": {"dtype": "DT_INT32", "tensorShape": {}}}, "dtype": {"type": "DT_INT32"}}}, {"name": "StatefulPartitionedCall/functional_177_1/efficientnetv2-b3_1/block5e_se_reshape_1/Reshape/shape/3", "op": "Const", "attr": {"value": {"tensor": {"dtype": "DT_INT32", "tensorShape": {}}}, "dtype": {"type": "DT_INT32"}}}, {"name": "StatefulPartitionedCall/functional_177_1/efficientnetv2-b3_1/block5e_se_reduce_1/convolution/ReadVariableOp", "op": "Const", "attr": {"value": {"tensor": {"dtype": "DT_FLOAT", "tensorShape": {"dim": [{"size": "1"}, {"size": "1"}, {"size": "816"}, {"size": "34"}]}}}, "dtype": {"type": "DT_FLOAT"}}}, {"name": "StatefulPartitionedCall/functional_177_1/efficientnetv2-b3_1/block5e_se_reduce_1/Squeeze", "op": "Const", "attr": {"value": {"tensor": {"dtype": "DT_FLOAT", "tensorShape": {"dim": [{"size": "34"}]}}}, "dtype": {"type": "DT_FLOAT"}}}, {"name": "StatefulPartitionedCall/functional_177_1/efficientnetv2-b3_1/block5e_se_expand_1/convolution/ReadVariableOp", "op": "Const", "attr": {"value": {"tensor": {"dtype": "DT_FLOAT", "tensorShape": {"dim": [{"size": "1"}, {"size": "1"}, {"size": "34"}, {"size": "816"}]}}}, "dtype": {"type": "DT_FLOAT"}}}, {"name": "StatefulPartitionedCall/functional_177_1/efficientnetv2-b3_1/block5e_se_expand_1/Squeeze", "op": "Const", "attr": {"value": {"tensor": {"dtype": "DT_FLOAT", "tensorShape": {"dim": [{"size": "816"}]}}}, "dtype": {"type": "DT_FLOAT"}}}, {"name": "StatefulPartitionedCall/functional_177_1/efficientnetv2-b3_1/block5e_project_conv_1/convolution/merged_input", "op": "Const", "attr": {"value": {"tensor": {"dtype": "DT_FLOAT", "tensorShape": {"dim": [{"size": "1"}, {"size": "1"}, {"size": "816"}, {"size": "136"}]}}}, "dtype": {"type": "DT_FLOAT"}}}, {"name": "StatefulPartitionedCall/functional_177_1/efficientnetv2-b3_1/block5d_project_bn_1/batchnorm/sub", "op": "Const", "attr": {"value": {"tensor": {"dtype": "DT_FLOAT", "tensorShape": {"dim": [{"size": "1"}, {"size": "1"}, {"size": "1"}, {"size": "136"}]}}}, "dtype": {"type": "DT_FLOAT"}}}, {"name": "StatefulPartitionedCall/functional_177_1/efficientnetv2-b3_1/block5d_expand_conv_1/convolution/merged_input", "op": "Const", "attr": {"value": {"tensor": {"dtype": "DT_FLOAT", "tensorShape": {"dim": [{"size": "1"}, {"size": "1"}, {"size": "136"}, {"size": "816"}]}}}, "dtype": {"type": "DT_FLOAT"}}}, {"name": "StatefulPartitionedCall/functional_177_1/efficientnetv2-b3_1/block5d_expand_bn_1/batchnorm/sub", "op": "Const", "attr": {"value": {"tensor": {"dtype": "DT_FLOAT", "tensorShape": {"dim": [{"size": "1"}, {"size": "1"}, {"size": "1"}, {"size": "816"}]}}}, "dtype": {"type": "DT_FLOAT"}}}, {"name": "StatefulPartitionedCall/functional_177_1/efficientnetv2-b3_1/block5d_dwconv2_1/depthwise/ReadVariableOp", "op": "Const", "attr": {"value": {"tensor": {"dtype": "DT_FLOAT", "tensorShape": {"dim": [{"size": "3"}, {"size": "3"}, {"size": "816"}, {"size": "1"}]}}}, "dtype": {"type": "DT_FLOAT"}}}, {"name": "StatefulPartitionedCall/functional_177_1/efficientnetv2-b3_1/block5d_bn_1/batchnorm/mul", "op": "Const", "attr": {"value": {"tensor": {"dtype": "DT_FLOAT", "tensorShape": {"dim": [{"size": "1"}, {"size": "1"}, {"size": "1"}, {"size": "816"}]}}}, "dtype": {"type": "DT_FLOAT"}}}, {"name": "StatefulPartitionedCall/functional_177_1/efficientnetv2-b3_1/block5d_bn_1/batchnorm/sub", "op": "Const", "attr": {"value": {"tensor": {"dtype": "DT_FLOAT", "tensorShape": {"dim": [{"size": "1"}, {"size": "1"}, {"size": "1"}, {"size": "816"}]}}}, "dtype": {"type": "DT_FLOAT"}}}, {"name": "StatefulPartitionedCall/functional_177_1/efficientnetv2-b3_1/block5d_se_squeeze_1/Mean/reduction_indices", "op": "Const", "attr": {"value": {"tensor": {"dtype": "DT_INT32", "tensorShape": {"dim": [{"size": "2"}]}}}, "dtype": {"type": "DT_INT32"}}}, {"name": "StatefulPartitionedCall/functional_177_1/efficientnetv2-b3_1/block5d_se_reshape_1/strided_slice/stack", "op": "Const", "attr": {"value": {"tensor": {"dtype": "DT_INT32", "tensorShape": {"dim": [{"size": "1"}]}}}, "dtype": {"type": "DT_INT32"}}}, {"name": "StatefulPartitionedCall/functional_177_1/efficientnetv2-b3_1/block5d_se_reshape_1/strided_slice/stack_1", "op": "Const", "attr": {"value": {"tensor": {"dtype": "DT_INT32", "tensorShape": {"dim": [{"size": "1"}]}}}, "dtype": {"type": "DT_INT32"}}}, {"name": "StatefulPartitionedCall/functional_177_1/efficientnetv2-b3_1/block5d_se_reshape_1/strided_slice/stack_2", "op": "Const", "attr": {"value": {"tensor": {"dtype": "DT_INT32", "tensorShape": {"dim": [{"size": "1"}]}}}, "dtype": {"type": "DT_INT32"}}}, {"name": "StatefulPartitionedCall/functional_177_1/efficientnetv2-b3_1/block5d_se_reshape_1/Reshape/shape/1", "op": "Const", "attr": {"value": {"tensor": {"dtype": "DT_INT32", "tensorShape": {}}}, "dtype": {"type": "DT_INT32"}}}, {"name": "StatefulPartitionedCall/functional_177_1/efficientnetv2-b3_1/block5d_se_reshape_1/Reshape/shape/2", "op": "Const", "attr": {"value": {"tensor": {"dtype": "DT_INT32", "tensorShape": {}}}, "dtype": {"type": "DT_INT32"}}}, {"name": "StatefulPartitionedCall/functional_177_1/efficientnetv2-b3_1/block5d_se_reshape_1/Reshape/shape/3", "op": "Const", "attr": {"value": {"tensor": {"dtype": "DT_INT32", "tensorShape": {}}}, "dtype": {"type": "DT_INT32"}}}, {"name": "StatefulPartitionedCall/functional_177_1/efficientnetv2-b3_1/block5d_se_reduce_1/convolution/ReadVariableOp", "op": "Const", "attr": {"value": {"tensor": {"dtype": "DT_FLOAT", "tensorShape": {"dim": [{"size": "1"}, {"size": "1"}, {"size": "816"}, {"size": "34"}]}}}, "dtype": {"type": "DT_FLOAT"}}}, {"name": "StatefulPartitionedCall/functional_177_1/efficientnetv2-b3_1/block5d_se_reduce_1/Squeeze", "op": "Const", "attr": {"value": {"tensor": {"dtype": "DT_FLOAT", "tensorShape": {"dim": [{"size": "34"}]}}}, "dtype": {"type": "DT_FLOAT"}}}, {"name": "StatefulPartitionedCall/functional_177_1/efficientnetv2-b3_1/block5d_se_expand_1/convolution/ReadVariableOp", "op": "Const", "attr": {"value": {"tensor": {"dtype": "DT_FLOAT", "tensorShape": {"dim": [{"size": "1"}, {"size": "1"}, {"size": "34"}, {"size": "816"}]}}}, "dtype": {"type": "DT_FLOAT"}}}, {"name": "StatefulPartitionedCall/functional_177_1/efficientnetv2-b3_1/block5d_se_expand_1/Squeeze", "op": "Const", "attr": {"value": {"tensor": {"dtype": "DT_FLOAT", "tensorShape": {"dim": [{"size": "816"}]}}}, "dtype": {"type": "DT_FLOAT"}}}, {"name": "StatefulPartitionedCall/functional_177_1/efficientnetv2-b3_1/block5d_project_conv_1/convolution/merged_input", "op": "Const", "attr": {"value": {"tensor": {"dtype": "DT_FLOAT", "tensorShape": {"dim": [{"size": "1"}, {"size": "1"}, {"size": "816"}, {"size": "136"}]}}}, "dtype": {"type": "DT_FLOAT"}}}, {"name": "StatefulPartitionedCall/functional_177_1/efficientnetv2-b3_1/block5c_project_bn_1/batchnorm/sub", "op": "Const", "attr": {"value": {"tensor": {"dtype": "DT_FLOAT", "tensorShape": {"dim": [{"size": "1"}, {"size": "1"}, {"size": "1"}, {"size": "136"}]}}}, "dtype": {"type": "DT_FLOAT"}}}, {"name": "StatefulPartitionedCall/functional_177_1/efficientnetv2-b3_1/block5c_expand_conv_1/convolution/merged_input", "op": "Const", "attr": {"value": {"tensor": {"dtype": "DT_FLOAT", "tensorShape": {"dim": [{"size": "1"}, {"size": "1"}, {"size": "136"}, {"size": "816"}]}}}, "dtype": {"type": "DT_FLOAT"}}}, {"name": "StatefulPartitionedCall/functional_177_1/efficientnetv2-b3_1/block5c_expand_bn_1/batchnorm/sub", "op": "Const", "attr": {"value": {"tensor": {"dtype": "DT_FLOAT", "tensorShape": {"dim": [{"size": "1"}, {"size": "1"}, {"size": "1"}, {"size": "816"}]}}}, "dtype": {"type": "DT_FLOAT"}}}, {"name": "StatefulPartitionedCall/functional_177_1/efficientnetv2-b3_1/block5c_dwconv2_1/depthwise/ReadVariableOp", "op": "Const", "attr": {"value": {"tensor": {"dtype": "DT_FLOAT", "tensorShape": {"dim": [{"size": "3"}, {"size": "3"}, {"size": "816"}, {"size": "1"}]}}}, "dtype": {"type": "DT_FLOAT"}}}, {"name": "StatefulPartitionedCall/functional_177_1/efficientnetv2-b3_1/block5c_bn_1/batchnorm/mul", "op": "Const", "attr": {"value": {"tensor": {"dtype": "DT_FLOAT", "tensorShape": {"dim": [{"size": "1"}, {"size": "1"}, {"size": "1"}, {"size": "816"}]}}}, "dtype": {"type": "DT_FLOAT"}}}, {"name": "StatefulPartitionedCall/functional_177_1/efficientnetv2-b3_1/block5c_bn_1/batchnorm/sub", "op": "Const", "attr": {"value": {"tensor": {"dtype": "DT_FLOAT", "tensorShape": {"dim": [{"size": "1"}, {"size": "1"}, {"size": "1"}, {"size": "816"}]}}}, "dtype": {"type": "DT_FLOAT"}}}, {"name": "StatefulPartitionedCall/functional_177_1/efficientnetv2-b3_1/block5c_se_squeeze_1/Mean/reduction_indices", "op": "Const", "attr": {"value": {"tensor": {"dtype": "DT_INT32", "tensorShape": {"dim": [{"size": "2"}]}}}, "dtype": {"type": "DT_INT32"}}}, {"name": "StatefulPartitionedCall/functional_177_1/efficientnetv2-b3_1/block5c_se_reshape_1/strided_slice/stack", "op": "Const", "attr": {"value": {"tensor": {"dtype": "DT_INT32", "tensorShape": {"dim": [{"size": "1"}]}}}, "dtype": {"type": "DT_INT32"}}}, {"name": "StatefulPartitionedCall/functional_177_1/efficientnetv2-b3_1/block5c_se_reshape_1/strided_slice/stack_1", "op": "Const", "attr": {"value": {"tensor": {"dtype": "DT_INT32", "tensorShape": {"dim": [{"size": "1"}]}}}, "dtype": {"type": "DT_INT32"}}}, {"name": "StatefulPartitionedCall/functional_177_1/efficientnetv2-b3_1/block5c_se_reshape_1/strided_slice/stack_2", "op": "Const", "attr": {"value": {"tensor": {"dtype": "DT_INT32", "tensorShape": {"dim": [{"size": "1"}]}}}, "dtype": {"type": "DT_INT32"}}}, {"name": "StatefulPartitionedCall/functional_177_1/efficientnetv2-b3_1/block5c_se_reshape_1/Reshape/shape/1", "op": "Const", "attr": {"value": {"tensor": {"dtype": "DT_INT32", "tensorShape": {}}}, "dtype": {"type": "DT_INT32"}}}, {"name": "StatefulPartitionedCall/functional_177_1/efficientnetv2-b3_1/block5c_se_reshape_1/Reshape/shape/2", "op": "Const", "attr": {"value": {"tensor": {"dtype": "DT_INT32", "tensorShape": {}}}, "dtype": {"type": "DT_INT32"}}}, {"name": "StatefulPartitionedCall/functional_177_1/efficientnetv2-b3_1/block5c_se_reshape_1/Reshape/shape/3", "op": "Const", "attr": {"value": {"tensor": {"dtype": "DT_INT32", "tensorShape": {}}}, "dtype": {"type": "DT_INT32"}}}, {"name": "StatefulPartitionedCall/functional_177_1/efficientnetv2-b3_1/block5c_se_reduce_1/convolution/ReadVariableOp", "op": "Const", "attr": {"value": {"tensor": {"dtype": "DT_FLOAT", "tensorShape": {"dim": [{"size": "1"}, {"size": "1"}, {"size": "816"}, {"size": "34"}]}}}, "dtype": {"type": "DT_FLOAT"}}}, {"name": "StatefulPartitionedCall/functional_177_1/efficientnetv2-b3_1/block5c_se_reduce_1/Squeeze", "op": "Const", "attr": {"value": {"tensor": {"dtype": "DT_FLOAT", "tensorShape": {"dim": [{"size": "34"}]}}}, "dtype": {"type": "DT_FLOAT"}}}, {"name": "StatefulPartitionedCall/functional_177_1/efficientnetv2-b3_1/block5c_se_expand_1/convolution/ReadVariableOp", "op": "Const", "attr": {"value": {"tensor": {"dtype": "DT_FLOAT", "tensorShape": {"dim": [{"size": "1"}, {"size": "1"}, {"size": "34"}, {"size": "816"}]}}}, "dtype": {"type": "DT_FLOAT"}}}, {"name": "StatefulPartitionedCall/functional_177_1/efficientnetv2-b3_1/block5c_se_expand_1/Squeeze", "op": "Const", "attr": {"value": {"tensor": {"dtype": "DT_FLOAT", "tensorShape": {"dim": [{"size": "816"}]}}}, "dtype": {"type": "DT_FLOAT"}}}, {"name": "StatefulPartitionedCall/functional_177_1/efficientnetv2-b3_1/block5c_project_conv_1/convolution/merged_input", "op": "Const", "attr": {"value": {"tensor": {"dtype": "DT_FLOAT", "tensorShape": {"dim": [{"size": "1"}, {"size": "1"}, {"size": "816"}, {"size": "136"}]}}}, "dtype": {"type": "DT_FLOAT"}}}, {"name": "StatefulPartitionedCall/functional_177_1/efficientnetv2-b3_1/block5b_project_bn_1/batchnorm/sub", "op": "Const", "attr": {"value": {"tensor": {"dtype": "DT_FLOAT", "tensorShape": {"dim": [{"size": "1"}, {"size": "1"}, {"size": "1"}, {"size": "136"}]}}}, "dtype": {"type": "DT_FLOAT"}}}, {"name": "StatefulPartitionedCall/functional_177_1/efficientnetv2-b3_1/block5b_expand_conv_1/convolution/merged_input", "op": "Const", "attr": {"value": {"tensor": {"dtype": "DT_FLOAT", "tensorShape": {"dim": [{"size": "1"}, {"size": "1"}, {"size": "136"}, {"size": "816"}]}}}, "dtype": {"type": "DT_FLOAT"}}}, {"name": "StatefulPartitionedCall/functional_177_1/efficientnetv2-b3_1/block5b_expand_bn_1/batchnorm/sub", "op": "Const", "attr": {"value": {"tensor": {"dtype": "DT_FLOAT", "tensorShape": {"dim": [{"size": "1"}, {"size": "1"}, {"size": "1"}, {"size": "816"}]}}}, "dtype": {"type": "DT_FLOAT"}}}, {"name": "StatefulPartitionedCall/functional_177_1/efficientnetv2-b3_1/block5b_dwconv2_1/depthwise/ReadVariableOp", "op": "Const", "attr": {"value": {"tensor": {"dtype": "DT_FLOAT", "tensorShape": {"dim": [{"size": "3"}, {"size": "3"}, {"size": "816"}, {"size": "1"}]}}}, "dtype": {"type": "DT_FLOAT"}}}, {"name": "StatefulPartitionedCall/functional_177_1/efficientnetv2-b3_1/block5b_bn_1/batchnorm/mul", "op": "Const", "attr": {"value": {"tensor": {"dtype": "DT_FLOAT", "tensorShape": {"dim": [{"size": "1"}, {"size": "1"}, {"size": "1"}, {"size": "816"}]}}}, "dtype": {"type": "DT_FLOAT"}}}, {"name": "StatefulPartitionedCall/functional_177_1/efficientnetv2-b3_1/block5b_bn_1/batchnorm/sub", "op": "Const", "attr": {"value": {"tensor": {"dtype": "DT_FLOAT", "tensorShape": {"dim": [{"size": "1"}, {"size": "1"}, {"size": "1"}, {"size": "816"}]}}}, "dtype": {"type": "DT_FLOAT"}}}, {"name": "StatefulPartitionedCall/functional_177_1/efficientnetv2-b3_1/block5b_se_squeeze_1/Mean/reduction_indices", "op": "Const", "attr": {"value": {"tensor": {"dtype": "DT_INT32", "tensorShape": {"dim": [{"size": "2"}]}}}, "dtype": {"type": "DT_INT32"}}}, {"name": "StatefulPartitionedCall/functional_177_1/efficientnetv2-b3_1/block5b_se_reshape_1/strided_slice/stack", "op": "Const", "attr": {"value": {"tensor": {"dtype": "DT_INT32", "tensorShape": {"dim": [{"size": "1"}]}}}, "dtype": {"type": "DT_INT32"}}}, {"name": "StatefulPartitionedCall/functional_177_1/efficientnetv2-b3_1/block5b_se_reshape_1/strided_slice/stack_1", "op": "Const", "attr": {"value": {"tensor": {"dtype": "DT_INT32", "tensorShape": {"dim": [{"size": "1"}]}}}, "dtype": {"type": "DT_INT32"}}}, {"name": "StatefulPartitionedCall/functional_177_1/efficientnetv2-b3_1/block5b_se_reshape_1/strided_slice/stack_2", "op": "Const", "attr": {"value": {"tensor": {"dtype": "DT_INT32", "tensorShape": {"dim": [{"size": "1"}]}}}, "dtype": {"type": "DT_INT32"}}}, {"name": "StatefulPartitionedCall/functional_177_1/efficientnetv2-b3_1/block5b_se_reshape_1/Reshape/shape/1", "op": "Const", "attr": {"value": {"tensor": {"dtype": "DT_INT32", "tensorShape": {}}}, "dtype": {"type": "DT_INT32"}}}, {"name": "StatefulPartitionedCall/functional_177_1/efficientnetv2-b3_1/block5b_se_reshape_1/Reshape/shape/2", "op": "Const", "attr": {"value": {"tensor": {"dtype": "DT_INT32", "tensorShape": {}}}, "dtype": {"type": "DT_INT32"}}}, {"name": "StatefulPartitionedCall/functional_177_1/efficientnetv2-b3_1/block5b_se_reshape_1/Reshape/shape/3", "op": "Const", "attr": {"value": {"tensor": {"dtype": "DT_INT32", "tensorShape": {}}}, "dtype": {"type": "DT_INT32"}}}, {"name": "StatefulPartitionedCall/functional_177_1/efficientnetv2-b3_1/block5b_se_reduce_1/convolution/ReadVariableOp", "op": "Const", "attr": {"value": {"tensor": {"dtype": "DT_FLOAT", "tensorShape": {"dim": [{"size": "1"}, {"size": "1"}, {"size": "816"}, {"size": "34"}]}}}, "dtype": {"type": "DT_FLOAT"}}}, {"name": "StatefulPartitionedCall/functional_177_1/efficientnetv2-b3_1/block5b_se_reduce_1/Squeeze", "op": "Const", "attr": {"value": {"tensor": {"dtype": "DT_FLOAT", "tensorShape": {"dim": [{"size": "34"}]}}}, "dtype": {"type": "DT_FLOAT"}}}, {"name": "StatefulPartitionedCall/functional_177_1/efficientnetv2-b3_1/block5b_se_expand_1/convolution/ReadVariableOp", "op": "Const", "attr": {"value": {"tensor": {"dtype": "DT_FLOAT", "tensorShape": {"dim": [{"size": "1"}, {"size": "1"}, {"size": "34"}, {"size": "816"}]}}}, "dtype": {"type": "DT_FLOAT"}}}, {"name": "StatefulPartitionedCall/functional_177_1/efficientnetv2-b3_1/block5b_se_expand_1/Squeeze", "op": "Const", "attr": {"value": {"tensor": {"dtype": "DT_FLOAT", "tensorShape": {"dim": [{"size": "816"}]}}}, "dtype": {"type": "DT_FLOAT"}}}, {"name": "StatefulPartitionedCall/functional_177_1/efficientnetv2-b3_1/block5b_project_conv_1/convolution/merged_input", "op": "Const", "attr": {"value": {"tensor": {"dtype": "DT_FLOAT", "tensorShape": {"dim": [{"size": "1"}, {"size": "1"}, {"size": "816"}, {"size": "136"}]}}}, "dtype": {"type": "DT_FLOAT"}}}, {"name": "StatefulPartitionedCall/functional_177_1/efficientnetv2-b3_1/block4e_project_bn_1/batchnorm/sub", "op": "Const", "attr": {"value": {"tensor": {"dtype": "DT_FLOAT", "tensorShape": {"dim": [{"size": "1"}, {"size": "1"}, {"size": "1"}, {"size": "112"}]}}}, "dtype": {"type": "DT_FLOAT"}}}, {"name": "StatefulPartitionedCall/functional_177_1/efficientnetv2-b3_1/block4e_expand_conv_1/convolution/merged_input", "op": "Const", "attr": {"value": {"tensor": {"dtype": "DT_FLOAT", "tensorShape": {"dim": [{"size": "1"}, {"size": "1"}, {"size": "112"}, {"size": "448"}]}}}, "dtype": {"type": "DT_FLOAT"}}}, {"name": "StatefulPartitionedCall/functional_177_1/efficientnetv2-b3_1/block4e_expand_bn_1/batchnorm/sub", "op": "Const", "attr": {"value": {"tensor": {"dtype": "DT_FLOAT", "tensorShape": {"dim": [{"size": "1"}, {"size": "1"}, {"size": "1"}, {"size": "448"}]}}}, "dtype": {"type": "DT_FLOAT"}}}, {"name": "StatefulPartitionedCall/functional_177_1/efficientnetv2-b3_1/block4e_dwconv2_1/depthwise/ReadVariableOp", "op": "Const", "attr": {"value": {"tensor": {"dtype": "DT_FLOAT", "tensorShape": {"dim": [{"size": "3"}, {"size": "3"}, {"size": "448"}, {"size": "1"}]}}}, "dtype": {"type": "DT_FLOAT"}}}, {"name": "StatefulPartitionedCall/functional_177_1/efficientnetv2-b3_1/block4e_bn_1/batchnorm/mul", "op": "Const", "attr": {"value": {"tensor": {"dtype": "DT_FLOAT", "tensorShape": {"dim": [{"size": "1"}, {"size": "1"}, {"size": "1"}, {"size": "448"}]}}}, "dtype": {"type": "DT_FLOAT"}}}, {"name": "StatefulPartitionedCall/functional_177_1/efficientnetv2-b3_1/block4e_bn_1/batchnorm/sub", "op": "Const", "attr": {"value": {"tensor": {"dtype": "DT_FLOAT", "tensorShape": {"dim": [{"size": "1"}, {"size": "1"}, {"size": "1"}, {"size": "448"}]}}}, "dtype": {"type": "DT_FLOAT"}}}, {"name": "StatefulPartitionedCall/functional_177_1/efficientnetv2-b3_1/block4e_se_squeeze_1/Mean/reduction_indices", "op": "Const", "attr": {"value": {"tensor": {"dtype": "DT_INT32", "tensorShape": {"dim": [{"size": "2"}]}}}, "dtype": {"type": "DT_INT32"}}}, {"name": "StatefulPartitionedCall/functional_177_1/efficientnetv2-b3_1/block4e_se_reshape_1/strided_slice/stack", "op": "Const", "attr": {"value": {"tensor": {"dtype": "DT_INT32", "tensorShape": {"dim": [{"size": "1"}]}}}, "dtype": {"type": "DT_INT32"}}}, {"name": "StatefulPartitionedCall/functional_177_1/efficientnetv2-b3_1/block4e_se_reshape_1/strided_slice/stack_1", "op": "Const", "attr": {"value": {"tensor": {"dtype": "DT_INT32", "tensorShape": {"dim": [{"size": "1"}]}}}, "dtype": {"type": "DT_INT32"}}}, {"name": "StatefulPartitionedCall/functional_177_1/efficientnetv2-b3_1/block4e_se_reshape_1/strided_slice/stack_2", "op": "Const", "attr": {"value": {"tensor": {"dtype": "DT_INT32", "tensorShape": {"dim": [{"size": "1"}]}}}, "dtype": {"type": "DT_INT32"}}}, {"name": "StatefulPartitionedCall/functional_177_1/efficientnetv2-b3_1/block4e_se_reshape_1/Reshape/shape/1", "op": "Const", "attr": {"value": {"tensor": {"dtype": "DT_INT32", "tensorShape": {}}}, "dtype": {"type": "DT_INT32"}}}, {"name": "StatefulPartitionedCall/functional_177_1/efficientnetv2-b3_1/block4e_se_reshape_1/Reshape/shape/2", "op": "Const", "attr": {"value": {"tensor": {"dtype": "DT_INT32", "tensorShape": {}}}, "dtype": {"type": "DT_INT32"}}}, {"name": "StatefulPartitionedCall/functional_177_1/efficientnetv2-b3_1/block4e_se_reshape_1/Reshape/shape/3", "op": "Const", "attr": {"value": {"tensor": {"dtype": "DT_INT32", "tensorShape": {}}}, "dtype": {"type": "DT_INT32"}}}, {"name": "StatefulPartitionedCall/functional_177_1/efficientnetv2-b3_1/block4e_se_reduce_1/convolution/ReadVariableOp", "op": "Const", "attr": {"value": {"tensor": {"dtype": "DT_FLOAT", "tensorShape": {"dim": [{"size": "1"}, {"size": "1"}, {"size": "448"}, {"size": "28"}]}}}, "dtype": {"type": "DT_FLOAT"}}}, {"name": "StatefulPartitionedCall/functional_177_1/efficientnetv2-b3_1/block4e_se_reduce_1/Squeeze", "op": "Const", "attr": {"value": {"tensor": {"dtype": "DT_FLOAT", "tensorShape": {"dim": [{"size": "28"}]}}}, "dtype": {"type": "DT_FLOAT"}}}, {"name": "StatefulPartitionedCall/functional_177_1/efficientnetv2-b3_1/block4e_se_expand_1/convolution/ReadVariableOp", "op": "Const", "attr": {"value": {"tensor": {"dtype": "DT_FLOAT", "tensorShape": {"dim": [{"size": "1"}, {"size": "1"}, {"size": "28"}, {"size": "448"}]}}}, "dtype": {"type": "DT_FLOAT"}}}, {"name": "StatefulPartitionedCall/functional_177_1/efficientnetv2-b3_1/block4e_se_expand_1/Squeeze", "op": "Const", "attr": {"value": {"tensor": {"dtype": "DT_FLOAT", "tensorShape": {"dim": [{"size": "448"}]}}}, "dtype": {"type": "DT_FLOAT"}}}, {"name": "StatefulPartitionedCall/functional_177_1/efficientnetv2-b3_1/block4e_project_conv_1/convolution/merged_input", "op": "Const", "attr": {"value": {"tensor": {"dtype": "DT_FLOAT", "tensorShape": {"dim": [{"size": "1"}, {"size": "1"}, {"size": "448"}, {"size": "112"}]}}}, "dtype": {"type": "DT_FLOAT"}}}, {"name": "StatefulPartitionedCall/functional_177_1/efficientnetv2-b3_1/block4d_project_bn_1/batchnorm/sub", "op": "Const", "attr": {"value": {"tensor": {"dtype": "DT_FLOAT", "tensorShape": {"dim": [{"size": "1"}, {"size": "1"}, {"size": "1"}, {"size": "112"}]}}}, "dtype": {"type": "DT_FLOAT"}}}, {"name": "StatefulPartitionedCall/functional_177_1/efficientnetv2-b3_1/block4d_expand_conv_1/convolution/merged_input", "op": "Const", "attr": {"value": {"tensor": {"dtype": "DT_FLOAT", "tensorShape": {"dim": [{"size": "1"}, {"size": "1"}, {"size": "112"}, {"size": "448"}]}}}, "dtype": {"type": "DT_FLOAT"}}}, {"name": "StatefulPartitionedCall/functional_177_1/efficientnetv2-b3_1/block4d_expand_bn_1/batchnorm/sub", "op": "Const", "attr": {"value": {"tensor": {"dtype": "DT_FLOAT", "tensorShape": {"dim": [{"size": "1"}, {"size": "1"}, {"size": "1"}, {"size": "448"}]}}}, "dtype": {"type": "DT_FLOAT"}}}, {"name": "StatefulPartitionedCall/functional_177_1/efficientnetv2-b3_1/block4d_dwconv2_1/depthwise/ReadVariableOp", "op": "Const", "attr": {"value": {"tensor": {"dtype": "DT_FLOAT", "tensorShape": {"dim": [{"size": "3"}, {"size": "3"}, {"size": "448"}, {"size": "1"}]}}}, "dtype": {"type": "DT_FLOAT"}}}, {"name": "StatefulPartitionedCall/functional_177_1/efficientnetv2-b3_1/block4d_bn_1/batchnorm/mul", "op": "Const", "attr": {"value": {"tensor": {"dtype": "DT_FLOAT", "tensorShape": {"dim": [{"size": "1"}, {"size": "1"}, {"size": "1"}, {"size": "448"}]}}}, "dtype": {"type": "DT_FLOAT"}}}, {"name": "StatefulPartitionedCall/functional_177_1/efficientnetv2-b3_1/block4d_bn_1/batchnorm/sub", "op": "Const", "attr": {"value": {"tensor": {"dtype": "DT_FLOAT", "tensorShape": {"dim": [{"size": "1"}, {"size": "1"}, {"size": "1"}, {"size": "448"}]}}}, "dtype": {"type": "DT_FLOAT"}}}, {"name": "StatefulPartitionedCall/functional_177_1/efficientnetv2-b3_1/block4d_se_squeeze_1/Mean/reduction_indices", "op": "Const", "attr": {"value": {"tensor": {"dtype": "DT_INT32", "tensorShape": {"dim": [{"size": "2"}]}}}, "dtype": {"type": "DT_INT32"}}}, {"name": "StatefulPartitionedCall/functional_177_1/efficientnetv2-b3_1/block4d_se_reshape_1/strided_slice/stack", "op": "Const", "attr": {"value": {"tensor": {"dtype": "DT_INT32", "tensorShape": {"dim": [{"size": "1"}]}}}, "dtype": {"type": "DT_INT32"}}}, {"name": "StatefulPartitionedCall/functional_177_1/efficientnetv2-b3_1/block4d_se_reshape_1/strided_slice/stack_1", "op": "Const", "attr": {"value": {"tensor": {"dtype": "DT_INT32", "tensorShape": {"dim": [{"size": "1"}]}}}, "dtype": {"type": "DT_INT32"}}}, {"name": "StatefulPartitionedCall/functional_177_1/efficientnetv2-b3_1/block4d_se_reshape_1/strided_slice/stack_2", "op": "Const", "attr": {"value": {"tensor": {"dtype": "DT_INT32", "tensorShape": {"dim": [{"size": "1"}]}}}, "dtype": {"type": "DT_INT32"}}}, {"name": "StatefulPartitionedCall/functional_177_1/efficientnetv2-b3_1/block4d_se_reshape_1/Reshape/shape/1", "op": "Const", "attr": {"value": {"tensor": {"dtype": "DT_INT32", "tensorShape": {}}}, "dtype": {"type": "DT_INT32"}}}, {"name": "StatefulPartitionedCall/functional_177_1/efficientnetv2-b3_1/block4d_se_reshape_1/Reshape/shape/2", "op": "Const", "attr": {"value": {"tensor": {"dtype": "DT_INT32", "tensorShape": {}}}, "dtype": {"type": "DT_INT32"}}}, {"name": "StatefulPartitionedCall/functional_177_1/efficientnetv2-b3_1/block4d_se_reshape_1/Reshape/shape/3", "op": "Const", "attr": {"value": {"tensor": {"dtype": "DT_INT32", "tensorShape": {}}}, "dtype": {"type": "DT_INT32"}}}, {"name": "StatefulPartitionedCall/functional_177_1/efficientnetv2-b3_1/block4d_se_reduce_1/convolution/ReadVariableOp", "op": "Const", "attr": {"value": {"tensor": {"dtype": "DT_FLOAT", "tensorShape": {"dim": [{"size": "1"}, {"size": "1"}, {"size": "448"}, {"size": "28"}]}}}, "dtype": {"type": "DT_FLOAT"}}}, {"name": "StatefulPartitionedCall/functional_177_1/efficientnetv2-b3_1/block4d_se_reduce_1/Squeeze", "op": "Const", "attr": {"value": {"tensor": {"dtype": "DT_FLOAT", "tensorShape": {"dim": [{"size": "28"}]}}}, "dtype": {"type": "DT_FLOAT"}}}, {"name": "StatefulPartitionedCall/functional_177_1/efficientnetv2-b3_1/block4d_se_expand_1/convolution/ReadVariableOp", "op": "Const", "attr": {"value": {"tensor": {"dtype": "DT_FLOAT", "tensorShape": {"dim": [{"size": "1"}, {"size": "1"}, {"size": "28"}, {"size": "448"}]}}}, "dtype": {"type": "DT_FLOAT"}}}, {"name": "StatefulPartitionedCall/functional_177_1/efficientnetv2-b3_1/block4d_se_expand_1/Squeeze", "op": "Const", "attr": {"value": {"tensor": {"dtype": "DT_FLOAT", "tensorShape": {"dim": [{"size": "448"}]}}}, "dtype": {"type": "DT_FLOAT"}}}, {"name": "StatefulPartitionedCall/functional_177_1/efficientnetv2-b3_1/block4d_project_conv_1/convolution/merged_input", "op": "Const", "attr": {"value": {"tensor": {"dtype": "DT_FLOAT", "tensorShape": {"dim": [{"size": "1"}, {"size": "1"}, {"size": "448"}, {"size": "112"}]}}}, "dtype": {"type": "DT_FLOAT"}}}, {"name": "StatefulPartitionedCall/functional_177_1/efficientnetv2-b3_1/block4c_project_bn_1/batchnorm/sub", "op": "Const", "attr": {"value": {"tensor": {"dtype": "DT_FLOAT", "tensorShape": {"dim": [{"size": "1"}, {"size": "1"}, {"size": "1"}, {"size": "112"}]}}}, "dtype": {"type": "DT_FLOAT"}}}, {"name": "StatefulPartitionedCall/functional_177_1/efficientnetv2-b3_1/block4c_expand_conv_1/convolution/merged_input", "op": "Const", "attr": {"value": {"tensor": {"dtype": "DT_FLOAT", "tensorShape": {"dim": [{"size": "1"}, {"size": "1"}, {"size": "112"}, {"size": "448"}]}}}, "dtype": {"type": "DT_FLOAT"}}}, {"name": "StatefulPartitionedCall/functional_177_1/efficientnetv2-b3_1/block4c_expand_bn_1/batchnorm/sub", "op": "Const", "attr": {"value": {"tensor": {"dtype": "DT_FLOAT", "tensorShape": {"dim": [{"size": "1"}, {"size": "1"}, {"size": "1"}, {"size": "448"}]}}}, "dtype": {"type": "DT_FLOAT"}}}, {"name": "StatefulPartitionedCall/functional_177_1/efficientnetv2-b3_1/block4c_dwconv2_1/depthwise/ReadVariableOp", "op": "Const", "attr": {"value": {"tensor": {"dtype": "DT_FLOAT", "tensorShape": {"dim": [{"size": "3"}, {"size": "3"}, {"size": "448"}, {"size": "1"}]}}}, "dtype": {"type": "DT_FLOAT"}}}, {"name": "StatefulPartitionedCall/functional_177_1/efficientnetv2-b3_1/block4c_bn_1/batchnorm/mul", "op": "Const", "attr": {"value": {"tensor": {"dtype": "DT_FLOAT", "tensorShape": {"dim": [{"size": "1"}, {"size": "1"}, {"size": "1"}, {"size": "448"}]}}}, "dtype": {"type": "DT_FLOAT"}}}, {"name": "StatefulPartitionedCall/functional_177_1/efficientnetv2-b3_1/block4c_bn_1/batchnorm/sub", "op": "Const", "attr": {"value": {"tensor": {"dtype": "DT_FLOAT", "tensorShape": {"dim": [{"size": "1"}, {"size": "1"}, {"size": "1"}, {"size": "448"}]}}}, "dtype": {"type": "DT_FLOAT"}}}, {"name": "StatefulPartitionedCall/functional_177_1/efficientnetv2-b3_1/block4c_se_squeeze_1/Mean/reduction_indices", "op": "Const", "attr": {"value": {"tensor": {"dtype": "DT_INT32", "tensorShape": {"dim": [{"size": "2"}]}}}, "dtype": {"type": "DT_INT32"}}}, {"name": "StatefulPartitionedCall/functional_177_1/efficientnetv2-b3_1/block4c_se_reshape_1/strided_slice/stack", "op": "Const", "attr": {"value": {"tensor": {"dtype": "DT_INT32", "tensorShape": {"dim": [{"size": "1"}]}}}, "dtype": {"type": "DT_INT32"}}}, {"name": "StatefulPartitionedCall/functional_177_1/efficientnetv2-b3_1/block4c_se_reshape_1/strided_slice/stack_1", "op": "Const", "attr": {"value": {"tensor": {"dtype": "DT_INT32", "tensorShape": {"dim": [{"size": "1"}]}}}, "dtype": {"type": "DT_INT32"}}}, {"name": "StatefulPartitionedCall/functional_177_1/efficientnetv2-b3_1/block4c_se_reshape_1/strided_slice/stack_2", "op": "Const", "attr": {"value": {"tensor": {"dtype": "DT_INT32", "tensorShape": {"dim": [{"size": "1"}]}}}, "dtype": {"type": "DT_INT32"}}}, {"name": "StatefulPartitionedCall/functional_177_1/efficientnetv2-b3_1/block4c_se_reshape_1/Reshape/shape/1", "op": "Const", "attr": {"value": {"tensor": {"dtype": "DT_INT32", "tensorShape": {}}}, "dtype": {"type": "DT_INT32"}}}, {"name": "StatefulPartitionedCall/functional_177_1/efficientnetv2-b3_1/block4c_se_reshape_1/Reshape/shape/2", "op": "Const", "attr": {"value": {"tensor": {"dtype": "DT_INT32", "tensorShape": {}}}, "dtype": {"type": "DT_INT32"}}}, {"name": "StatefulPartitionedCall/functional_177_1/efficientnetv2-b3_1/block4c_se_reshape_1/Reshape/shape/3", "op": "Const", "attr": {"value": {"tensor": {"dtype": "DT_INT32", "tensorShape": {}}}, "dtype": {"type": "DT_INT32"}}}, {"name": "StatefulPartitionedCall/functional_177_1/efficientnetv2-b3_1/block4c_se_reduce_1/convolution/ReadVariableOp", "op": "Const", "attr": {"value": {"tensor": {"dtype": "DT_FLOAT", "tensorShape": {"dim": [{"size": "1"}, {"size": "1"}, {"size": "448"}, {"size": "28"}]}}}, "dtype": {"type": "DT_FLOAT"}}}, {"name": "StatefulPartitionedCall/functional_177_1/efficientnetv2-b3_1/block4c_se_reduce_1/Squeeze", "op": "Const", "attr": {"value": {"tensor": {"dtype": "DT_FLOAT", "tensorShape": {"dim": [{"size": "28"}]}}}, "dtype": {"type": "DT_FLOAT"}}}, {"name": "StatefulPartitionedCall/functional_177_1/efficientnetv2-b3_1/block4c_se_expand_1/convolution/ReadVariableOp", "op": "Const", "attr": {"value": {"tensor": {"dtype": "DT_FLOAT", "tensorShape": {"dim": [{"size": "1"}, {"size": "1"}, {"size": "28"}, {"size": "448"}]}}}, "dtype": {"type": "DT_FLOAT"}}}, {"name": "StatefulPartitionedCall/functional_177_1/efficientnetv2-b3_1/block4c_se_expand_1/Squeeze", "op": "Const", "attr": {"value": {"tensor": {"dtype": "DT_FLOAT", "tensorShape": {"dim": [{"size": "448"}]}}}, "dtype": {"type": "DT_FLOAT"}}}, {"name": "StatefulPartitionedCall/functional_177_1/efficientnetv2-b3_1/block4c_project_conv_1/convolution/merged_input", "op": "Const", "attr": {"value": {"tensor": {"dtype": "DT_FLOAT", "tensorShape": {"dim": [{"size": "1"}, {"size": "1"}, {"size": "448"}, {"size": "112"}]}}}, "dtype": {"type": "DT_FLOAT"}}}, {"name": "StatefulPartitionedCall/functional_177_1/efficientnetv2-b3_1/block4b_project_bn_1/batchnorm/sub", "op": "Const", "attr": {"value": {"tensor": {"dtype": "DT_FLOAT", "tensorShape": {"dim": [{"size": "1"}, {"size": "1"}, {"size": "1"}, {"size": "112"}]}}}, "dtype": {"type": "DT_FLOAT"}}}, {"name": "StatefulPartitionedCall/functional_177_1/efficientnetv2-b3_1/block4b_expand_conv_1/convolution/merged_input", "op": "Const", "attr": {"value": {"tensor": {"dtype": "DT_FLOAT", "tensorShape": {"dim": [{"size": "1"}, {"size": "1"}, {"size": "112"}, {"size": "448"}]}}}, "dtype": {"type": "DT_FLOAT"}}}, {"name": "StatefulPartitionedCall/functional_177_1/efficientnetv2-b3_1/block4b_expand_bn_1/batchnorm/sub", "op": "Const", "attr": {"value": {"tensor": {"dtype": "DT_FLOAT", "tensorShape": {"dim": [{"size": "1"}, {"size": "1"}, {"size": "1"}, {"size": "448"}]}}}, "dtype": {"type": "DT_FLOAT"}}}, {"name": "StatefulPartitionedCall/functional_177_1/efficientnetv2-b3_1/block4b_dwconv2_1/depthwise/ReadVariableOp", "op": "Const", "attr": {"value": {"tensor": {"dtype": "DT_FLOAT", "tensorShape": {"dim": [{"size": "3"}, {"size": "3"}, {"size": "448"}, {"size": "1"}]}}}, "dtype": {"type": "DT_FLOAT"}}}, {"name": "StatefulPartitionedCall/functional_177_1/efficientnetv2-b3_1/block4b_bn_1/batchnorm/mul", "op": "Const", "attr": {"value": {"tensor": {"dtype": "DT_FLOAT", "tensorShape": {"dim": [{"size": "1"}, {"size": "1"}, {"size": "1"}, {"size": "448"}]}}}, "dtype": {"type": "DT_FLOAT"}}}, {"name": "StatefulPartitionedCall/functional_177_1/efficientnetv2-b3_1/block4b_bn_1/batchnorm/sub", "op": "Const", "attr": {"value": {"tensor": {"dtype": "DT_FLOAT", "tensorShape": {"dim": [{"size": "1"}, {"size": "1"}, {"size": "1"}, {"size": "448"}]}}}, "dtype": {"type": "DT_FLOAT"}}}, {"name": "StatefulPartitionedCall/functional_177_1/efficientnetv2-b3_1/block4b_se_squeeze_1/Mean/reduction_indices", "op": "Const", "attr": {"value": {"tensor": {"dtype": "DT_INT32", "tensorShape": {"dim": [{"size": "2"}]}}}, "dtype": {"type": "DT_INT32"}}}, {"name": "StatefulPartitionedCall/functional_177_1/efficientnetv2-b3_1/block4b_se_reshape_1/strided_slice/stack", "op": "Const", "attr": {"value": {"tensor": {"dtype": "DT_INT32", "tensorShape": {"dim": [{"size": "1"}]}}}, "dtype": {"type": "DT_INT32"}}}, {"name": "StatefulPartitionedCall/functional_177_1/efficientnetv2-b3_1/block4b_se_reshape_1/strided_slice/stack_1", "op": "Const", "attr": {"value": {"tensor": {"dtype": "DT_INT32", "tensorShape": {"dim": [{"size": "1"}]}}}, "dtype": {"type": "DT_INT32"}}}, {"name": "StatefulPartitionedCall/functional_177_1/efficientnetv2-b3_1/block4b_se_reshape_1/strided_slice/stack_2", "op": "Const", "attr": {"value": {"tensor": {"dtype": "DT_INT32", "tensorShape": {"dim": [{"size": "1"}]}}}, "dtype": {"type": "DT_INT32"}}}, {"name": "StatefulPartitionedCall/functional_177_1/efficientnetv2-b3_1/block4b_se_reshape_1/Reshape/shape/1", "op": "Const", "attr": {"value": {"tensor": {"dtype": "DT_INT32", "tensorShape": {}}}, "dtype": {"type": "DT_INT32"}}}, {"name": "StatefulPartitionedCall/functional_177_1/efficientnetv2-b3_1/block4b_se_reshape_1/Reshape/shape/2", "op": "Const", "attr": {"value": {"tensor": {"dtype": "DT_INT32", "tensorShape": {}}}, "dtype": {"type": "DT_INT32"}}}, {"name": "StatefulPartitionedCall/functional_177_1/efficientnetv2-b3_1/block4b_se_reshape_1/Reshape/shape/3", "op": "Const", "attr": {"value": {"tensor": {"dtype": "DT_INT32", "tensorShape": {}}}, "dtype": {"type": "DT_INT32"}}}, {"name": "StatefulPartitionedCall/functional_177_1/efficientnetv2-b3_1/block4b_se_reduce_1/convolution/ReadVariableOp", "op": "Const", "attr": {"value": {"tensor": {"dtype": "DT_FLOAT", "tensorShape": {"dim": [{"size": "1"}, {"size": "1"}, {"size": "448"}, {"size": "28"}]}}}, "dtype": {"type": "DT_FLOAT"}}}, {"name": "StatefulPartitionedCall/functional_177_1/efficientnetv2-b3_1/block4b_se_reduce_1/Squeeze", "op": "Const", "attr": {"value": {"tensor": {"dtype": "DT_FLOAT", "tensorShape": {"dim": [{"size": "28"}]}}}, "dtype": {"type": "DT_FLOAT"}}}, {"name": "StatefulPartitionedCall/functional_177_1/efficientnetv2-b3_1/block4b_se_expand_1/convolution/ReadVariableOp", "op": "Const", "attr": {"value": {"tensor": {"dtype": "DT_FLOAT", "tensorShape": {"dim": [{"size": "1"}, {"size": "1"}, {"size": "28"}, {"size": "448"}]}}}, "dtype": {"type": "DT_FLOAT"}}}, {"name": "StatefulPartitionedCall/functional_177_1/efficientnetv2-b3_1/block4b_se_expand_1/Squeeze", "op": "Const", "attr": {"value": {"tensor": {"dtype": "DT_FLOAT", "tensorShape": {"dim": [{"size": "448"}]}}}, "dtype": {"type": "DT_FLOAT"}}}, {"name": "StatefulPartitionedCall/functional_177_1/efficientnetv2-b3_1/block4b_project_conv_1/convolution/merged_input", "op": "Const", "attr": {"value": {"tensor": {"dtype": "DT_FLOAT", "tensorShape": {"dim": [{"size": "1"}, {"size": "1"}, {"size": "448"}, {"size": "112"}]}}}, "dtype": {"type": "DT_FLOAT"}}}, {"name": "StatefulPartitionedCall/functional_177_1/efficientnetv2-b3_1/block3c_project_bn_1/batchnorm/sub", "op": "Const", "attr": {"value": {"tensor": {"dtype": "DT_FLOAT", "tensorShape": {"dim": [{"size": "1"}, {"size": "1"}, {"size": "1"}, {"size": "56"}]}}}, "dtype": {"type": "DT_FLOAT"}}}, {"name": "StatefulPartitionedCall/functional_177_1/efficientnetv2-b3_1/block3c_expand_conv_1/convolution/merged_input", "op": "Const", "attr": {"value": {"tensor": {"dtype": "DT_FLOAT", "tensorShape": {"dim": [{"size": "3"}, {"size": "3"}, {"size": "56"}, {"size": "224"}]}}}, "dtype": {"type": "DT_FLOAT"}}}, {"name": "StatefulPartitionedCall/functional_177_1/efficientnetv2-b3_1/block3c_expand_bn_1/batchnorm/sub", "op": "Const", "attr": {"value": {"tensor": {"dtype": "DT_FLOAT", "tensorShape": {"dim": [{"size": "1"}, {"size": "1"}, {"size": "1"}, {"size": "224"}]}}}, "dtype": {"type": "DT_FLOAT"}}}, {"name": "StatefulPartitionedCall/functional_177_1/efficientnetv2-b3_1/block3c_project_conv_1/convolution/merged_input", "op": "Const", "attr": {"value": {"tensor": {"dtype": "DT_FLOAT", "tensorShape": {"dim": [{"size": "1"}, {"size": "1"}, {"size": "224"}, {"size": "56"}]}}}, "dtype": {"type": "DT_FLOAT"}}}, {"name": "StatefulPartitionedCall/functional_177_1/efficientnetv2-b3_1/block3b_project_bn_1/batchnorm/sub", "op": "Const", "attr": {"value": {"tensor": {"dtype": "DT_FLOAT", "tensorShape": {"dim": [{"size": "1"}, {"size": "1"}, {"size": "1"}, {"size": "56"}]}}}, "dtype": {"type": "DT_FLOAT"}}}, {"name": "StatefulPartitionedCall/functional_177_1/efficientnetv2-b3_1/block3b_expand_conv_1/convolution/merged_input", "op": "Const", "attr": {"value": {"tensor": {"dtype": "DT_FLOAT", "tensorShape": {"dim": [{"size": "3"}, {"size": "3"}, {"size": "56"}, {"size": "224"}]}}}, "dtype": {"type": "DT_FLOAT"}}}, {"name": "StatefulPartitionedCall/functional_177_1/efficientnetv2-b3_1/block3b_expand_bn_1/batchnorm/sub", "op": "Const", "attr": {"value": {"tensor": {"dtype": "DT_FLOAT", "tensorShape": {"dim": [{"size": "1"}, {"size": "1"}, {"size": "1"}, {"size": "224"}]}}}, "dtype": {"type": "DT_FLOAT"}}}, {"name": "StatefulPartitionedCall/functional_177_1/efficientnetv2-b3_1/block3b_project_conv_1/convolution/merged_input", "op": "Const", "attr": {"value": {"tensor": {"dtype": "DT_FLOAT", "tensorShape": {"dim": [{"size": "1"}, {"size": "1"}, {"size": "224"}, {"size": "56"}]}}}, "dtype": {"type": "DT_FLOAT"}}}, {"name": "StatefulPartitionedCall/functional_177_1/efficientnetv2-b3_1/block2c_project_bn_1/batchnorm/sub", "op": "Const", "attr": {"value": {"tensor": {"dtype": "DT_FLOAT", "tensorShape": {"dim": [{"size": "1"}, {"size": "1"}, {"size": "1"}, {"size": "40"}]}}}, "dtype": {"type": "DT_FLOAT"}}}, {"name": "StatefulPartitionedCall/functional_177_1/efficientnetv2-b3_1/block2c_expand_conv_1/convolution/merged_input", "op": "Const", "attr": {"value": {"tensor": {"dtype": "DT_FLOAT", "tensorShape": {"dim": [{"size": "3"}, {"size": "3"}, {"size": "40"}, {"size": "160"}]}}}, "dtype": {"type": "DT_FLOAT"}}}, {"name": "StatefulPartitionedCall/functional_177_1/efficientnetv2-b3_1/block2c_expand_bn_1/batchnorm/sub", "op": "Const", "attr": {"value": {"tensor": {"dtype": "DT_FLOAT", "tensorShape": {"dim": [{"size": "1"}, {"size": "1"}, {"size": "1"}, {"size": "160"}]}}}, "dtype": {"type": "DT_FLOAT"}}}, {"name": "StatefulPartitionedCall/functional_177_1/efficientnetv2-b3_1/block2c_project_conv_1/convolution/merged_input", "op": "Const", "attr": {"value": {"tensor": {"dtype": "DT_FLOAT", "tensorShape": {"dim": [{"size": "1"}, {"size": "1"}, {"size": "160"}, {"size": "40"}]}}}, "dtype": {"type": "DT_FLOAT"}}}, {"name": "StatefulPartitionedCall/functional_177_1/efficientnetv2-b3_1/block2b_project_bn_1/batchnorm/sub", "op": "Const", "attr": {"value": {"tensor": {"dtype": "DT_FLOAT", "tensorShape": {"dim": [{"size": "1"}, {"size": "1"}, {"size": "1"}, {"size": "40"}]}}}, "dtype": {"type": "DT_FLOAT"}}}, {"name": "StatefulPartitionedCall/functional_177_1/efficientnetv2-b3_1/block2b_expand_conv_1/convolution/merged_input", "op": "Const", "attr": {"value": {"tensor": {"dtype": "DT_FLOAT", "tensorShape": {"dim": [{"size": "3"}, {"size": "3"}, {"size": "40"}, {"size": "160"}]}}}, "dtype": {"type": "DT_FLOAT"}}}, {"name": "StatefulPartitionedCall/functional_177_1/efficientnetv2-b3_1/block2b_expand_bn_1/batchnorm/sub", "op": "Const", "attr": {"value": {"tensor": {"dtype": "DT_FLOAT", "tensorShape": {"dim": [{"size": "1"}, {"size": "1"}, {"size": "1"}, {"size": "160"}]}}}, "dtype": {"type": "DT_FLOAT"}}}, {"name": "StatefulPartitionedCall/functional_177_1/efficientnetv2-b3_1/block2b_project_conv_1/convolution/merged_input", "op": "Const", "attr": {"value": {"tensor": {"dtype": "DT_FLOAT", "tensorShape": {"dim": [{"size": "1"}, {"size": "1"}, {"size": "160"}, {"size": "40"}]}}}, "dtype": {"type": "DT_FLOAT"}}}, {"name": "StatefulPartitionedCall/functional_177_1/efficientnetv2-b3_1/block1b_project_conv_1/convolution/merged_input", "op": "Const", "attr": {"value": {"tensor": {"dtype": "DT_FLOAT", "tensorShape": {"dim": [{"size": "3"}, {"size": "3"}, {"size": "16"}, {"size": "16"}]}}}, "dtype": {"type": "DT_FLOAT"}}}, {"name": "StatefulPartitionedCall/functional_177_1/efficientnetv2-b3_1/block1b_project_bn_1/batchnorm/sub", "op": "Const", "attr": {"value": {"tensor": {"dtype": "DT_FLOAT", "tensorShape": {"dim": [{"size": "1"}, {"size": "1"}, {"size": "1"}, {"size": "16"}]}}}, "dtype": {"type": "DT_FLOAT"}}}, {"name": "StatefulPartitionedCall/functional_177_1/efficientnetv2-b3_1/rescaling_17_1/Cast/x", "op": "Const", "attr": {"value": {"tensor": {"dtype": "DT_FLOAT", "tensorShape": {}}}, "dtype": {"type": "DT_FLOAT"}}}, {"name": "StatefulPartitionedCall/functional_177_1/efficientnetv2-b3_1/rescaling_17_1/add", "op": "Const", "attr": {"value": {"tensor": {"dtype": "DT_FLOAT", "tensorShape": {"dim": [{"size": "1"}, {"size": "1"}, {"size": "1"}, {"size": "3"}]}}}, "dtype": {"type": "DT_FLOAT"}}}, {"name": "ConstantFolding/StatefulPartitionedCall/functional_177_1/efficientnetv2-b3_1/normalization_17_1/truediv_recip", "op": "Const", "attr": {"value": {"tensor": {"dtype": "DT_FLOAT", "tensorShape": {"dim": [{"size": "1"}, {"size": "1"}, {"size": "1"}, {"size": "3"}]}}}, "dtype": {"type": "DT_FLOAT"}}}, {"name": "StatefulPartitionedCall/functional_177_1/efficientnetv2-b3_1/stem_conv_1/convolution/merged_input", "op": "Const", "attr": {"value": {"tensor": {"dtype": "DT_FLOAT", "tensorShape": {"dim": [{"size": "3"}, {"size": "3"}, {"size": "3"}, {"size": "40"}]}}}, "dtype": {"type": "DT_FLOAT"}}}, {"name": "StatefulPartitionedCall/functional_177_1/efficientnetv2-b3_1/stem_bn_1/batchnorm/sub", "op": "Const", "attr": {"value": {"tensor": {"dtype": "DT_FLOAT", "tensorShape": {"dim": [{"size": "1"}, {"size": "1"}, {"size": "1"}, {"size": "40"}]}}}, "dtype": {"type": "DT_FLOAT"}}}, {"name": "StatefulPartitionedCall/functional_177_1/efficientnetv2-b3_1/block1a_project_conv_1/convolution/merged_input", "op": "Const", "attr": {"value": {"tensor": {"dtype": "DT_FLOAT", "tensorShape": {"dim": [{"size": "3"}, {"size": "3"}, {"size": "40"}, {"size": "16"}]}}}, "dtype": {"type": "DT_FLOAT"}}}, {"name": "StatefulPartitionedCall/functional_177_1/efficientnetv2-b3_1/block1a_project_bn_1/batchnorm/sub", "op": "Const", "attr": {"value": {"tensor": {"dtype": "DT_FLOAT", "tensorShape": {"dim": [{"size": "1"}, {"size": "1"}, {"size": "1"}, {"size": "16"}]}}}, "dtype": {"type": "DT_FLOAT"}}}, {"name": "StatefulPartitionedCall/functional_177_1/efficientnetv2-b3_1/block2a_expand_conv_1/convolution/merged_input", "op": "Const", "attr": {"value": {"tensor": {"dtype": "DT_FLOAT", "tensorShape": {"dim": [{"size": "3"}, {"size": "3"}, {"size": "16"}, {"size": "64"}]}}}, "dtype": {"type": "DT_FLOAT"}}}, {"name": "StatefulPartitionedCall/functional_177_1/efficientnetv2-b3_1/block2a_expand_bn_1/batchnorm/sub", "op": "Const", "attr": {"value": {"tensor": {"dtype": "DT_FLOAT", "tensorShape": {"dim": [{"size": "1"}, {"size": "1"}, {"size": "1"}, {"size": "64"}]}}}, "dtype": {"type": "DT_FLOAT"}}}, {"name": "StatefulPartitionedCall/functional_177_1/efficientnetv2-b3_1/block2a_project_conv_1/convolution/merged_input", "op": "Const", "attr": {"value": {"tensor": {"dtype": "DT_FLOAT", "tensorShape": {"dim": [{"size": "1"}, {"size": "1"}, {"size": "64"}, {"size": "40"}]}}}, "dtype": {"type": "DT_FLOAT"}}}, {"name": "StatefulPartitionedCall/functional_177_1/efficientnetv2-b3_1/block2a_project_bn_1/batchnorm/sub", "op": "Const", "attr": {"value": {"tensor": {"dtype": "DT_FLOAT", "tensorShape": {"dim": [{"size": "1"}, {"size": "1"}, {"size": "1"}, {"size": "40"}]}}}, "dtype": {"type": "DT_FLOAT"}}}, {"name": "StatefulPartitionedCall/functional_177_1/efficientnetv2-b3_1/block3a_expand_conv_1/convolution/merged_input", "op": "Const", "attr": {"value": {"tensor": {"dtype": "DT_FLOAT", "tensorShape": {"dim": [{"size": "3"}, {"size": "3"}, {"size": "40"}, {"size": "160"}]}}}, "dtype": {"type": "DT_FLOAT"}}}, {"name": "StatefulPartitionedCall/functional_177_1/efficientnetv2-b3_1/block3a_expand_bn_1/batchnorm/sub", "op": "Const", "attr": {"value": {"tensor": {"dtype": "DT_FLOAT", "tensorShape": {"dim": [{"size": "1"}, {"size": "1"}, {"size": "1"}, {"size": "160"}]}}}, "dtype": {"type": "DT_FLOAT"}}}, {"name": "StatefulPartitionedCall/functional_177_1/efficientnetv2-b3_1/block3a_project_conv_1/convolution/merged_input", "op": "Const", "attr": {"value": {"tensor": {"dtype": "DT_FLOAT", "tensorShape": {"dim": [{"size": "1"}, {"size": "1"}, {"size": "160"}, {"size": "56"}]}}}, "dtype": {"type": "DT_FLOAT"}}}, {"name": "StatefulPartitionedCall/functional_177_1/efficientnetv2-b3_1/block3a_project_bn_1/batchnorm/sub", "op": "Const", "attr": {"value": {"tensor": {"dtype": "DT_FLOAT", "tensorShape": {"dim": [{"size": "1"}, {"size": "1"}, {"size": "1"}, {"size": "56"}]}}}, "dtype": {"type": "DT_FLOAT"}}}, {"name": "StatefulPartitionedCall/functional_177_1/efficientnetv2-b3_1/block4a_expand_conv_1/convolution/merged_input", "op": "Const", "attr": {"value": {"tensor": {"dtype": "DT_FLOAT", "tensorShape": {"dim": [{"size": "1"}, {"size": "1"}, {"size": "56"}, {"size": "224"}]}}}, "dtype": {"type": "DT_FLOAT"}}}, {"name": "StatefulPartitionedCall/functional_177_1/efficientnetv2-b3_1/block4a_expand_bn_1/batchnorm/sub", "op": "Const", "attr": {"value": {"tensor": {"dtype": "DT_FLOAT", "tensorShape": {"dim": [{"size": "1"}, {"size": "1"}, {"size": "1"}, {"size": "224"}]}}}, "dtype": {"type": "DT_FLOAT"}}}, {"name": "StatefulPartitionedCall/functional_177_1/efficientnetv2-b3_1/block4a_dwconv2_1/depthwise/ReadVariableOp", "op": "Const", "attr": {"value": {"tensor": {"dtype": "DT_FLOAT", "tensorShape": {"dim": [{"size": "3"}, {"size": "3"}, {"size": "224"}, {"size": "1"}]}}}, "dtype": {"type": "DT_FLOAT"}}}, {"name": "StatefulPartitionedCall/functional_177_1/efficientnetv2-b3_1/block4a_bn_1/batchnorm/mul", "op": "Const", "attr": {"value": {"tensor": {"dtype": "DT_FLOAT", "tensorShape": {"dim": [{"size": "1"}, {"size": "1"}, {"size": "1"}, {"size": "224"}]}}}, "dtype": {"type": "DT_FLOAT"}}}, {"name": "StatefulPartitionedCall/functional_177_1/efficientnetv2-b3_1/block4a_bn_1/batchnorm/sub", "op": "Const", "attr": {"value": {"tensor": {"dtype": "DT_FLOAT", "tensorShape": {"dim": [{"size": "1"}, {"size": "1"}, {"size": "1"}, {"size": "224"}]}}}, "dtype": {"type": "DT_FLOAT"}}}, {"name": "StatefulPartitionedCall/functional_177_1/efficientnetv2-b3_1/block4a_se_squeeze_1/Mean/reduction_indices", "op": "Const", "attr": {"value": {"tensor": {"dtype": "DT_INT32", "tensorShape": {"dim": [{"size": "2"}]}}}, "dtype": {"type": "DT_INT32"}}}, {"name": "StatefulPartitionedCall/functional_177_1/efficientnetv2-b3_1/block4a_se_reshape_1/strided_slice/stack", "op": "Const", "attr": {"value": {"tensor": {"dtype": "DT_INT32", "tensorShape": {"dim": [{"size": "1"}]}}}, "dtype": {"type": "DT_INT32"}}}, {"name": "StatefulPartitionedCall/functional_177_1/efficientnetv2-b3_1/block4a_se_reshape_1/strided_slice/stack_1", "op": "Const", "attr": {"value": {"tensor": {"dtype": "DT_INT32", "tensorShape": {"dim": [{"size": "1"}]}}}, "dtype": {"type": "DT_INT32"}}}, {"name": "StatefulPartitionedCall/functional_177_1/efficientnetv2-b3_1/block4a_se_reshape_1/strided_slice/stack_2", "op": "Const", "attr": {"value": {"tensor": {"dtype": "DT_INT32", "tensorShape": {"dim": [{"size": "1"}]}}}, "dtype": {"type": "DT_INT32"}}}, {"name": "StatefulPartitionedCall/functional_177_1/efficientnetv2-b3_1/block4a_se_reshape_1/Reshape/shape/1", "op": "Const", "attr": {"value": {"tensor": {"dtype": "DT_INT32", "tensorShape": {}}}, "dtype": {"type": "DT_INT32"}}}, {"name": "StatefulPartitionedCall/functional_177_1/efficientnetv2-b3_1/block4a_se_reshape_1/Reshape/shape/2", "op": "Const", "attr": {"value": {"tensor": {"dtype": "DT_INT32", "tensorShape": {}}}, "dtype": {"type": "DT_INT32"}}}, {"name": "StatefulPartitionedCall/functional_177_1/efficientnetv2-b3_1/block4a_se_reshape_1/Reshape/shape/3", "op": "Const", "attr": {"value": {"tensor": {"dtype": "DT_INT32", "tensorShape": {}}}, "dtype": {"type": "DT_INT32"}}}, {"name": "StatefulPartitionedCall/functional_177_1/efficientnetv2-b3_1/block4a_se_reduce_1/convolution/ReadVariableOp", "op": "Const", "attr": {"value": {"tensor": {"dtype": "DT_FLOAT", "tensorShape": {"dim": [{"size": "1"}, {"size": "1"}, {"size": "224"}, {"size": "14"}]}}}, "dtype": {"type": "DT_FLOAT"}}}, {"name": "StatefulPartitionedCall/functional_177_1/efficientnetv2-b3_1/block4a_se_reduce_1/Squeeze", "op": "Const", "attr": {"value": {"tensor": {"dtype": "DT_FLOAT", "tensorShape": {"dim": [{"size": "14"}]}}}, "dtype": {"type": "DT_FLOAT"}}}, {"name": "StatefulPartitionedCall/functional_177_1/efficientnetv2-b3_1/block4a_se_expand_1/convolution/ReadVariableOp", "op": "Const", "attr": {"value": {"tensor": {"dtype": "DT_FLOAT", "tensorShape": {"dim": [{"size": "1"}, {"size": "1"}, {"size": "14"}, {"size": "224"}]}}}, "dtype": {"type": "DT_FLOAT"}}}, {"name": "StatefulPartitionedCall/functional_177_1/efficientnetv2-b3_1/block4a_se_expand_1/Squeeze", "op": "Const", "attr": {"value": {"tensor": {"dtype": "DT_FLOAT", "tensorShape": {"dim": [{"size": "224"}]}}}, "dtype": {"type": "DT_FLOAT"}}}, {"name": "StatefulPartitionedCall/functional_177_1/efficientnetv2-b3_1/block4a_project_conv_1/convolution/merged_input", "op": "Const", "attr": {"value": {"tensor": {"dtype": "DT_FLOAT", "tensorShape": {"dim": [{"size": "1"}, {"size": "1"}, {"size": "224"}, {"size": "112"}]}}}, "dtype": {"type": "DT_FLOAT"}}}, {"name": "StatefulPartitionedCall/functional_177_1/efficientnetv2-b3_1/block4a_project_bn_1/batchnorm/sub", "op": "Const", "attr": {"value": {"tensor": {"dtype": "DT_FLOAT", "tensorShape": {"dim": [{"size": "1"}, {"size": "1"}, {"size": "1"}, {"size": "112"}]}}}, "dtype": {"type": "DT_FLOAT"}}}, {"name": "StatefulPartitionedCall/functional_177_1/efficientnetv2-b3_1/block5a_expand_conv_1/convolution/merged_input", "op": "Const", "attr": {"value": {"tensor": {"dtype": "DT_FLOAT", "tensorShape": {"dim": [{"size": "1"}, {"size": "1"}, {"size": "112"}, {"size": "672"}]}}}, "dtype": {"type": "DT_FLOAT"}}}, {"name": "StatefulPartitionedCall/functional_177_1/efficientnetv2-b3_1/block5a_expand_bn_1/batchnorm/sub", "op": "Const", "attr": {"value": {"tensor": {"dtype": "DT_FLOAT", "tensorShape": {"dim": [{"size": "1"}, {"size": "1"}, {"size": "1"}, {"size": "672"}]}}}, "dtype": {"type": "DT_FLOAT"}}}, {"name": "StatefulPartitionedCall/functional_177_1/efficientnetv2-b3_1/block5a_dwconv2_1/depthwise/ReadVariableOp", "op": "Const", "attr": {"value": {"tensor": {"dtype": "DT_FLOAT", "tensorShape": {"dim": [{"size": "3"}, {"size": "3"}, {"size": "672"}, {"size": "1"}]}}}, "dtype": {"type": "DT_FLOAT"}}}, {"name": "StatefulPartitionedCall/functional_177_1/efficientnetv2-b3_1/block5a_bn_1/batchnorm/mul", "op": "Const", "attr": {"value": {"tensor": {"dtype": "DT_FLOAT", "tensorShape": {"dim": [{"size": "1"}, {"size": "1"}, {"size": "1"}, {"size": "672"}]}}}, "dtype": {"type": "DT_FLOAT"}}}, {"name": "StatefulPartitionedCall/functional_177_1/efficientnetv2-b3_1/block5a_bn_1/batchnorm/sub", "op": "Const", "attr": {"value": {"tensor": {"dtype": "DT_FLOAT", "tensorShape": {"dim": [{"size": "1"}, {"size": "1"}, {"size": "1"}, {"size": "672"}]}}}, "dtype": {"type": "DT_FLOAT"}}}, {"name": "StatefulPartitionedCall/functional_177_1/efficientnetv2-b3_1/block5a_se_squeeze_1/Mean/reduction_indices", "op": "Const", "attr": {"value": {"tensor": {"dtype": "DT_INT32", "tensorShape": {"dim": [{"size": "2"}]}}}, "dtype": {"type": "DT_INT32"}}}, {"name": "StatefulPartitionedCall/functional_177_1/efficientnetv2-b3_1/block5a_se_reshape_1/strided_slice/stack", "op": "Const", "attr": {"value": {"tensor": {"dtype": "DT_INT32", "tensorShape": {"dim": [{"size": "1"}]}}}, "dtype": {"type": "DT_INT32"}}}, {"name": "StatefulPartitionedCall/functional_177_1/efficientnetv2-b3_1/block5a_se_reshape_1/strided_slice/stack_1", "op": "Const", "attr": {"value": {"tensor": {"dtype": "DT_INT32", "tensorShape": {"dim": [{"size": "1"}]}}}, "dtype": {"type": "DT_INT32"}}}, {"name": "StatefulPartitionedCall/functional_177_1/efficientnetv2-b3_1/block5a_se_reshape_1/strided_slice/stack_2", "op": "Const", "attr": {"value": {"tensor": {"dtype": "DT_INT32", "tensorShape": {"dim": [{"size": "1"}]}}}, "dtype": {"type": "DT_INT32"}}}, {"name": "StatefulPartitionedCall/functional_177_1/efficientnetv2-b3_1/block5a_se_reshape_1/Reshape/shape/1", "op": "Const", "attr": {"value": {"tensor": {"dtype": "DT_INT32", "tensorShape": {}}}, "dtype": {"type": "DT_INT32"}}}, {"name": "StatefulPartitionedCall/functional_177_1/efficientnetv2-b3_1/block5a_se_reshape_1/Reshape/shape/2", "op": "Const", "attr": {"value": {"tensor": {"dtype": "DT_INT32", "tensorShape": {}}}, "dtype": {"type": "DT_INT32"}}}, {"name": "StatefulPartitionedCall/functional_177_1/efficientnetv2-b3_1/block5a_se_reshape_1/Reshape/shape/3", "op": "Const", "attr": {"value": {"tensor": {"dtype": "DT_INT32", "tensorShape": {}}}, "dtype": {"type": "DT_INT32"}}}, {"name": "StatefulPartitionedCall/functional_177_1/efficientnetv2-b3_1/block5a_se_reduce_1/convolution/ReadVariableOp", "op": "Const", "attr": {"value": {"tensor": {"dtype": "DT_FLOAT", "tensorShape": {"dim": [{"size": "1"}, {"size": "1"}, {"size": "672"}, {"size": "28"}]}}}, "dtype": {"type": "DT_FLOAT"}}}, {"name": "StatefulPartitionedCall/functional_177_1/efficientnetv2-b3_1/block5a_se_reduce_1/Squeeze", "op": "Const", "attr": {"value": {"tensor": {"dtype": "DT_FLOAT", "tensorShape": {"dim": [{"size": "28"}]}}}, "dtype": {"type": "DT_FLOAT"}}}, {"name": "StatefulPartitionedCall/functional_177_1/efficientnetv2-b3_1/block5a_se_expand_1/convolution/ReadVariableOp", "op": "Const", "attr": {"value": {"tensor": {"dtype": "DT_FLOAT", "tensorShape": {"dim": [{"size": "1"}, {"size": "1"}, {"size": "28"}, {"size": "672"}]}}}, "dtype": {"type": "DT_FLOAT"}}}, {"name": "StatefulPartitionedCall/functional_177_1/efficientnetv2-b3_1/block5a_se_expand_1/Squeeze", "op": "Const", "attr": {"value": {"tensor": {"dtype": "DT_FLOAT", "tensorShape": {"dim": [{"size": "672"}]}}}, "dtype": {"type": "DT_FLOAT"}}}, {"name": "StatefulPartitionedCall/functional_177_1/efficientnetv2-b3_1/block5a_project_conv_1/convolution/merged_input", "op": "Const", "attr": {"value": {"tensor": {"dtype": "DT_FLOAT", "tensorShape": {"dim": [{"size": "1"}, {"size": "1"}, {"size": "672"}, {"size": "136"}]}}}, "dtype": {"type": "DT_FLOAT"}}}, {"name": "StatefulPartitionedCall/functional_177_1/efficientnetv2-b3_1/block5a_project_bn_1/batchnorm/sub", "op": "Const", "attr": {"value": {"tensor": {"dtype": "DT_FLOAT", "tensorShape": {"dim": [{"size": "1"}, {"size": "1"}, {"size": "1"}, {"size": "136"}]}}}, "dtype": {"type": "DT_FLOAT"}}}, {"name": "StatefulPartitionedCall/functional_177_1/efficientnetv2-b3_1/block6a_expand_conv_1/convolution/merged_input", "op": "Const", "attr": {"value": {"tensor": {"dtype": "DT_FLOAT", "tensorShape": {"dim": [{"size": "1"}, {"size": "1"}, {"size": "136"}, {"size": "816"}]}}}, "dtype": {"type": "DT_FLOAT"}}}, {"name": "StatefulPartitionedCall/functional_177_1/efficientnetv2-b3_1/block6a_expand_bn_1/batchnorm/sub", "op": "Const", "attr": {"value": {"tensor": {"dtype": "DT_FLOAT", "tensorShape": {"dim": [{"size": "1"}, {"size": "1"}, {"size": "1"}, {"size": "816"}]}}}, "dtype": {"type": "DT_FLOAT"}}}, {"name": "StatefulPartitionedCall/functional_177_1/efficientnetv2-b3_1/block6a_dwconv2_1/depthwise/ReadVariableOp", "op": "Const", "attr": {"value": {"tensor": {"dtype": "DT_FLOAT", "tensorShape": {"dim": [{"size": "3"}, {"size": "3"}, {"size": "816"}, {"size": "1"}]}}}, "dtype": {"type": "DT_FLOAT"}}}, {"name": "StatefulPartitionedCall/functional_177_1/efficientnetv2-b3_1/block6a_bn_1/batchnorm/mul", "op": "Const", "attr": {"value": {"tensor": {"dtype": "DT_FLOAT", "tensorShape": {"dim": [{"size": "1"}, {"size": "1"}, {"size": "1"}, {"size": "816"}]}}}, "dtype": {"type": "DT_FLOAT"}}}, {"name": "StatefulPartitionedCall/functional_177_1/efficientnetv2-b3_1/block6a_bn_1/batchnorm/sub", "op": "Const", "attr": {"value": {"tensor": {"dtype": "DT_FLOAT", "tensorShape": {"dim": [{"size": "1"}, {"size": "1"}, {"size": "1"}, {"size": "816"}]}}}, "dtype": {"type": "DT_FLOAT"}}}, {"name": "StatefulPartitionedCall/functional_177_1/efficientnetv2-b3_1/block6a_se_squeeze_1/Mean/reduction_indices", "op": "Const", "attr": {"value": {"tensor": {"dtype": "DT_INT32", "tensorShape": {"dim": [{"size": "2"}]}}}, "dtype": {"type": "DT_INT32"}}}, {"name": "StatefulPartitionedCall/functional_177_1/efficientnetv2-b3_1/block6a_se_reshape_1/strided_slice/stack", "op": "Const", "attr": {"value": {"tensor": {"dtype": "DT_INT32", "tensorShape": {"dim": [{"size": "1"}]}}}, "dtype": {"type": "DT_INT32"}}}, {"name": "StatefulPartitionedCall/functional_177_1/efficientnetv2-b3_1/block6a_se_reshape_1/strided_slice/stack_1", "op": "Const", "attr": {"value": {"tensor": {"dtype": "DT_INT32", "tensorShape": {"dim": [{"size": "1"}]}}}, "dtype": {"type": "DT_INT32"}}}, {"name": "StatefulPartitionedCall/functional_177_1/efficientnetv2-b3_1/block6a_se_reshape_1/strided_slice/stack_2", "op": "Const", "attr": {"value": {"tensor": {"dtype": "DT_INT32", "tensorShape": {"dim": [{"size": "1"}]}}}, "dtype": {"type": "DT_INT32"}}}, {"name": "StatefulPartitionedCall/functional_177_1/efficientnetv2-b3_1/block6a_se_reshape_1/Reshape/shape/1", "op": "Const", "attr": {"value": {"tensor": {"dtype": "DT_INT32", "tensorShape": {}}}, "dtype": {"type": "DT_INT32"}}}, {"name": "StatefulPartitionedCall/functional_177_1/efficientnetv2-b3_1/block6a_se_reshape_1/Reshape/shape/2", "op": "Const", "attr": {"value": {"tensor": {"dtype": "DT_INT32", "tensorShape": {}}}, "dtype": {"type": "DT_INT32"}}}, {"name": "StatefulPartitionedCall/functional_177_1/efficientnetv2-b3_1/block6a_se_reshape_1/Reshape/shape/3", "op": "Const", "attr": {"value": {"tensor": {"dtype": "DT_INT32", "tensorShape": {}}}, "dtype": {"type": "DT_INT32"}}}, {"name": "StatefulPartitionedCall/functional_177_1/efficientnetv2-b3_1/block6a_se_reduce_1/convolution/ReadVariableOp", "op": "Const", "attr": {"value": {"tensor": {"dtype": "DT_FLOAT", "tensorShape": {"dim": [{"size": "1"}, {"size": "1"}, {"size": "816"}, {"size": "34"}]}}}, "dtype": {"type": "DT_FLOAT"}}}, {"name": "StatefulPartitionedCall/functional_177_1/efficientnetv2-b3_1/block6a_se_reduce_1/Squeeze", "op": "Const", "attr": {"value": {"tensor": {"dtype": "DT_FLOAT", "tensorShape": {"dim": [{"size": "34"}]}}}, "dtype": {"type": "DT_FLOAT"}}}, {"name": "StatefulPartitionedCall/functional_177_1/efficientnetv2-b3_1/block6a_se_expand_1/convolution/ReadVariableOp", "op": "Const", "attr": {"value": {"tensor": {"dtype": "DT_FLOAT", "tensorShape": {"dim": [{"size": "1"}, {"size": "1"}, {"size": "34"}, {"size": "816"}]}}}, "dtype": {"type": "DT_FLOAT"}}}, {"name": "StatefulPartitionedCall/functional_177_1/efficientnetv2-b3_1/block6a_se_expand_1/Squeeze", "op": "Const", "attr": {"value": {"tensor": {"dtype": "DT_FLOAT", "tensorShape": {"dim": [{"size": "816"}]}}}, "dtype": {"type": "DT_FLOAT"}}}, {"name": "StatefulPartitionedCall/functional_177_1/efficientnetv2-b3_1/block6a_project_conv_1/convolution/merged_input", "op": "Const", "attr": {"value": {"tensor": {"dtype": "DT_FLOAT", "tensorShape": {"dim": [{"size": "1"}, {"size": "1"}, {"size": "816"}, {"size": "232"}]}}}, "dtype": {"type": "DT_FLOAT"}}}, {"name": "StatefulPartitionedCall/functional_177_1/efficientnetv2-b3_1/block6a_project_bn_1/batchnorm/sub", "op": "Const", "attr": {"value": {"tensor": {"dtype": "DT_FLOAT", "tensorShape": {"dim": [{"size": "1"}, {"size": "1"}, {"size": "1"}, {"size": "232"}]}}}, "dtype": {"type": "DT_FLOAT"}}}, {"name": "StatefulPartitionedCall/functional_177_1/efficientnetv2-b3_1/top_conv_1/convolution/merged_input", "op": "Const", "attr": {"value": {"tensor": {"dtype": "DT_FLOAT", "tensorShape": {"dim": [{"size": "1"}, {"size": "1"}, {"size": "232"}, {"size": "1536"}]}}}, "dtype": {"type": "DT_FLOAT"}}}, {"name": "StatefulPartitionedCall/functional_177_1/efficientnetv2-b3_1/top_bn_1/batchnorm/sub", "op": "Const", "attr": {"value": {"tensor": {"dtype": "DT_FLOAT", "tensorShape": {"dim": [{"size": "1"}, {"size": "1"}, {"size": "1"}, {"size": "1536"}]}}}, "dtype": {"type": "DT_FLOAT"}}}, {"name": "StatefulPartitionedCall/functional_177_1/global_average_pooling2d_17_1/Mean/reduction_indices", "op": "Const", "attr": {"value": {"tensor": {"dtype": "DT_INT32", "tensorShape": {"dim": [{"size": "2"}]}}}, "dtype": {"type": "DT_INT32"}}}, {"name": "StatefulPartitionedCall/functional_177_1/batch_normalization_17_1/batchnorm/mul", "op": "Const", "attr": {"value": {"tensor": {"dtype": "DT_FLOAT", "tensorShape": {"dim": [{"size": "1536"}]}}}, "dtype": {"type": "DT_FLOAT"}}}, {"name": "StatefulPartitionedCall/functional_177_1/batch_normalization_17_1/batchnorm/sub", "op": "Const", "attr": {"value": {"tensor": {"dtype": "DT_FLOAT", "tensorShape": {"dim": [{"size": "1536"}]}}}, "dtype": {"type": "DT_FLOAT"}}}, {"name": "StatefulPartitionedCall/functional_177_1/dense_34_1/Cast/ReadVariableOp", "op": "Const", "attr": {"value": {"tensor": {"dtype": "DT_FLOAT", "tensorShape": {"dim": [{"size": "1536"}, {"size": "256"}]}}}, "dtype": {"type": "DT_FLOAT"}}}, {"name": "StatefulPartitionedCall/functional_177_1/dense_34_1/BiasAdd/ReadVariableOp", "op": "Const", "attr": {"value": {"tensor": {"dtype": "DT_FLOAT", "tensorShape": {"dim": [{"size": "256"}]}}}, "dtype": {"type": "DT_FLOAT"}}}, {"name": "StatefulPartitionedCall/functional_177_1/dense_35_1/Cast/ReadVariableOp", "op": "Const", "attr": {"value": {"tensor": {"dtype": "DT_FLOAT", "tensorShape": {"dim": [{"size": "256"}, {"size": "10"}]}}}, "dtype": {"type": "DT_FLOAT"}}}, {"name": "StatefulPartitionedCall/functional_177_1/dense_35_1/BiasAdd/ReadVariableOp", "op": "Const", "attr": {"value": {"tensor": {"dtype": "DT_FLOAT", "tensorShape": {"dim": [{"size": "10"}]}}}, "dtype": {"type": "DT_FLOAT"}}}, {"name": "keras_tensor_25787", "op": "Placeholder", "attr": {"shape": {"shape": {"dim": [{"size": "-1"}, {"size": "256"}, {"size": "256"}, {"size": "3"}]}}, "dtype": {"type": "DT_FLOAT"}}}, {"name": "StatefulPartitionedCall/functional_177_1/efficientnetv2-b3_1/rescaling_17_1/mul", "op": "Mul", "input": ["keras_tensor_25787", "StatefulPartitionedCall/functional_177_1/efficientnetv2-b3_1/rescaling_17_1/Cast/x"], "attr": {"T": {"type": "DT_FLOAT"}}}, {"name": "StatefulPartitionedCall/functional_177_1/efficientnetv2-b3_1/normalization_17_1/Sub", "op": "Add", "input": ["StatefulPartitionedCall/functional_177_1/efficientnetv2-b3_1/rescaling_17_1/mul", "StatefulPartitionedCall/functional_177_1/efficientnetv2-b3_1/rescaling_17_1/add"], "attr": {"T": {"type": "DT_FLOAT"}}}, {"name": "StatefulPartitionedCall/functional_177_1/efficientnetv2-b3_1/normalization_17_1/truediv", "op": "Mul", "input": ["StatefulPartitionedCall/functional_177_1/efficientnetv2-b3_1/normalization_17_1/Sub", "ConstantFolding/StatefulPartitionedCall/functional_177_1/efficientnetv2-b3_1/normalization_17_1/truediv_recip"], "attr": {"T": {"type": "DT_FLOAT"}}}, {"name": "StatefulPartitionedCall/functional_177_1/efficientnetv2-b3_1/stem_bn_1/batchnorm/add_1", "op": "_FusedConv2D", "input": ["StatefulPartitionedCall/functional_177_1/efficientnetv2-b3_1/normalization_17_1/truediv", "StatefulPartitionedCall/functional_177_1/efficientnetv2-b3_1/stem_conv_1/convolution/merged_input", "StatefulPartitionedCall/functional_177_1/efficientnetv2-b3_1/stem_bn_1/batchnorm/sub"], "device": "/device:CPU:0", "attr": {"num_host_args": {"i": "0"}, "data_format": {"s": "TkhXQw=="}, "filter_format": {"s": "SFdJTw=="}, "fused_ops": {"list": {"s": ["Qmlhc0FkZA=="]}}, "num_args": {"i": "1"}, "strides": {"list": {"i": ["1", "2", "2", "1"]}}, "TArgs": {"list": {"type": ["DT_FLOAT"]}}, "padding": {"s": "U0FNRQ=="}, "use_cudnn_on_gpu": {"b": true}, "leakyrelu_alpha": {"f": 0.2}, "epsilon": {"f": 0.0}, "T": {"type": "DT_FLOAT"}, "explicit_paddings": {"list": {}}, "dilations": {"list": {"i": ["1", "1", "1", "1"]}}}}, {"name": "StatefulPartitionedCall/functional_177_1/efficientnetv2-b3_1/stem_activation_1/Sigmoid", "op": "Sigmoid", "input": ["StatefulPartitionedCall/functional_177_1/efficientnetv2-b3_1/stem_bn_1/batchnorm/add_1"], "attr": {"T": {"type": "DT_FLOAT"}}}, {"name": "StatefulPartitionedCall/functional_177_1/efficientnetv2-b3_1/stem_activation_1/mul_1", "op": "Mul", "input": ["StatefulPartitionedCall/functional_177_1/efficientnetv2-b3_1/stem_bn_1/batchnorm/add_1", "StatefulPartitionedCall/functional_177_1/efficientnetv2-b3_1/stem_activation_1/Sigmoid"], "attr": {"T": {"type": "DT_FLOAT"}}}, {"name": "StatefulPartitionedCall/functional_177_1/efficientnetv2-b3_1/block1a_project_bn_1/batchnorm/add_1", "op": "_FusedConv2D", "input": ["StatefulPartitionedCall/functional_177_1/efficientnetv2-b3_1/stem_activation_1/mul_1", "StatefulPartitionedCall/functional_177_1/efficientnetv2-b3_1/block1a_project_conv_1/convolution/merged_input", "StatefulPartitionedCall/functional_177_1/efficientnetv2-b3_1/block1a_project_bn_1/batchnorm/sub"], "device": "/device:CPU:0", "attr": {"num_host_args": {"i": "0"}, "data_format": {"s": "TkhXQw=="}, "filter_format": {"s": "SFdJTw=="}, "strides": {"list": {"i": ["1", "1", "1", "1"]}}, "num_args": {"i": "1"}, "fused_ops": {"list": {"s": ["Qmlhc0FkZA=="]}}, "TArgs": {"list": {"type": ["DT_FLOAT"]}}, "padding": {"s": "U0FNRQ=="}, "use_cudnn_on_gpu": {"b": true}, "leakyrelu_alpha": {"f": 0.2}, "epsilon": {"f": 0.0}, "T": {"type": "DT_FLOAT"}, "explicit_paddings": {"list": {}}, "dilations": {"list": {"i": ["1", "1", "1", "1"]}}}}, {"name": "StatefulPartitionedCall/functional_177_1/efficientnetv2-b3_1/block1a_project_activation_1/Sigmoid", "op": "Sigmoid", "input": ["StatefulPartitionedCall/functional_177_1/efficientnetv2-b3_1/block1a_project_bn_1/batchnorm/add_1"], "attr": {"T": {"type": "DT_FLOAT"}}}, {"name": "StatefulPartitionedCall/functional_177_1/efficientnetv2-b3_1/block1a_project_activation_1/mul_1", "op": "Mul", "input": ["StatefulPartitionedCall/functional_177_1/efficientnetv2-b3_1/block1a_project_bn_1/batchnorm/add_1", "StatefulPartitionedCall/functional_177_1/efficientnetv2-b3_1/block1a_project_activation_1/Sigmoid"], "attr": {"T": {"type": "DT_FLOAT"}}}, {"name": "StatefulPartitionedCall/functional_177_1/efficientnetv2-b3_1/block1b_project_bn_1/batchnorm/add_1", "op": "_FusedConv2D", "input": ["StatefulPartitionedCall/functional_177_1/efficientnetv2-b3_1/block1a_project_activation_1/mul_1", "StatefulPartitionedCall/functional_177_1/efficientnetv2-b3_1/block1b_project_conv_1/convolution/merged_input", "StatefulPartitionedCall/functional_177_1/efficientnetv2-b3_1/block1b_project_bn_1/batchnorm/sub"], "device": "/device:CPU:0", "attr": {"num_host_args": {"i": "0"}, "data_format": {"s": "TkhXQw=="}, "filter_format": {"s": "SFdJTw=="}, "strides": {"list": {"i": ["1", "1", "1", "1"]}}, "num_args": {"i": "1"}, "fused_ops": {"list": {"s": ["Qmlhc0FkZA=="]}}, "TArgs": {"list": {"type": ["DT_FLOAT"]}}, "padding": {"s": "U0FNRQ=="}, "use_cudnn_on_gpu": {"b": true}, "leakyrelu_alpha": {"f": 0.2}, "epsilon": {"f": 0.0}, "T": {"type": "DT_FLOAT"}, "explicit_paddings": {"list": {}}, "dilations": {"list": {"i": ["1", "1", "1", "1"]}}}}, {"name": "StatefulPartitionedCall/functional_177_1/efficientnetv2-b3_1/block1b_project_activation_1/Sigmoid", "op": "Sigmoid", "input": ["StatefulPartitionedCall/functional_177_1/efficientnetv2-b3_1/block1b_project_bn_1/batchnorm/add_1"], "attr": {"T": {"type": "DT_FLOAT"}}}, {"name": "StatefulPartitionedCall/functional_177_1/efficientnetv2-b3_1/block1b_project_activation_1/mul_1", "op": "Mul", "input": ["StatefulPartitionedCall/functional_177_1/efficientnetv2-b3_1/block1b_project_bn_1/batchnorm/add_1", "StatefulPartitionedCall/functional_177_1/efficientnetv2-b3_1/block1b_project_activation_1/Sigmoid"], "attr": {"T": {"type": "DT_FLOAT"}}}, {"name": "StatefulPartitionedCall/functional_177_1/efficientnetv2-b3_1/block1b_add_1/Add", "op": "AddV2", "input": ["StatefulPartitionedCall/functional_177_1/efficientnetv2-b3_1/block1b_project_activation_1/mul_1", "StatefulPartitionedCall/functional_177_1/efficientnetv2-b3_1/block1a_project_activation_1/mul_1"], "attr": {"T": {"type": "DT_FLOAT"}}}, {"name": "StatefulPartitionedCall/functional_177_1/efficientnetv2-b3_1/block2a_expand_bn_1/batchnorm/add_1", "op": "_FusedConv2D", "input": ["StatefulPartitionedCall/functional_177_1/efficientnetv2-b3_1/block1b_add_1/Add", "StatefulPartitionedCall/functional_177_1/efficientnetv2-b3_1/block2a_expand_conv_1/convolution/merged_input", "StatefulPartitionedCall/functional_177_1/efficientnetv2-b3_1/block2a_expand_bn_1/batchnorm/sub"], "device": "/device:CPU:0", "attr": {"num_host_args": {"i": "0"}, "data_format": {"s": "TkhXQw=="}, "filter_format": {"s": "SFdJTw=="}, "fused_ops": {"list": {"s": ["Qmlhc0FkZA=="]}}, "num_args": {"i": "1"}, "strides": {"list": {"i": ["1", "2", "2", "1"]}}, "TArgs": {"list": {"type": ["DT_FLOAT"]}}, "padding": {"s": "U0FNRQ=="}, "use_cudnn_on_gpu": {"b": true}, "leakyrelu_alpha": {"f": 0.2}, "epsilon": {"f": 0.0}, "T": {"type": "DT_FLOAT"}, "explicit_paddings": {"list": {}}, "dilations": {"list": {"i": ["1", "1", "1", "1"]}}}}, {"name": "StatefulPartitionedCall/functional_177_1/efficientnetv2-b3_1/block2a_expand_activation_1/Sigmoid", "op": "Sigmoid", "input": ["StatefulPartitionedCall/functional_177_1/efficientnetv2-b3_1/block2a_expand_bn_1/batchnorm/add_1"], "attr": {"T": {"type": "DT_FLOAT"}}}, {"name": "StatefulPartitionedCall/functional_177_1/efficientnetv2-b3_1/block2a_expand_activation_1/mul_1", "op": "Mul", "input": ["StatefulPartitionedCall/functional_177_1/efficientnetv2-b3_1/block2a_expand_bn_1/batchnorm/add_1", "StatefulPartitionedCall/functional_177_1/efficientnetv2-b3_1/block2a_expand_activation_1/Sigmoid"], "attr": {"T": {"type": "DT_FLOAT"}}}, {"name": "StatefulPartitionedCall/functional_177_1/efficientnetv2-b3_1/block2a_project_bn_1/batchnorm/add_1", "op": "_FusedConv2D", "input": ["StatefulPartitionedCall/functional_177_1/efficientnetv2-b3_1/block2a_expand_activation_1/mul_1", "StatefulPartitionedCall/functional_177_1/efficientnetv2-b3_1/block2a_project_conv_1/convolution/merged_input", "StatefulPartitionedCall/functional_177_1/efficientnetv2-b3_1/block2a_project_bn_1/batchnorm/sub"], "device": "/device:CPU:0", "attr": {"num_host_args": {"i": "0"}, "data_format": {"s": "TkhXQw=="}, "filter_format": {"s": "SFdJTw=="}, "fused_ops": {"list": {"s": ["Qmlhc0FkZA=="]}}, "num_args": {"i": "1"}, "strides": {"list": {"i": ["1", "1", "1", "1"]}}, "TArgs": {"list": {"type": ["DT_FLOAT"]}}, "padding": {"s": "U0FNRQ=="}, "use_cudnn_on_gpu": {"b": true}, "leakyrelu_alpha": {"f": 0.2}, "epsilon": {"f": 0.0}, "T": {"type": "DT_FLOAT"}, "explicit_paddings": {"list": {}}, "dilations": {"list": {"i": ["1", "1", "1", "1"]}}}}, {"name": "StatefulPartitionedCall/functional_177_1/efficientnetv2-b3_1/block2b_expand_bn_1/batchnorm/add_1", "op": "_FusedConv2D", "input": ["StatefulPartitionedCall/functional_177_1/efficientnetv2-b3_1/block2a_project_bn_1/batchnorm/add_1", "StatefulPartitionedCall/functional_177_1/efficientnetv2-b3_1/block2b_expand_conv_1/convolution/merged_input", "StatefulPartitionedCall/functional_177_1/efficientnetv2-b3_1/block2b_expand_bn_1/batchnorm/sub"], "device": "/device:CPU:0", "attr": {"num_host_args": {"i": "0"}, "data_format": {"s": "TkhXQw=="}, "filter_format": {"s": "SFdJTw=="}, "strides": {"list": {"i": ["1", "1", "1", "1"]}}, "num_args": {"i": "1"}, "fused_ops": {"list": {"s": ["Qmlhc0FkZA=="]}}, "TArgs": {"list": {"type": ["DT_FLOAT"]}}, "padding": {"s": "U0FNRQ=="}, "use_cudnn_on_gpu": {"b": true}, "leakyrelu_alpha": {"f": 0.2}, "epsilon": {"f": 0.0}, "T": {"type": "DT_FLOAT"}, "explicit_paddings": {"list": {}}, "dilations": {"list": {"i": ["1", "1", "1", "1"]}}}}, {"name": "StatefulPartitionedCall/functional_177_1/efficientnetv2-b3_1/block2b_expand_activation_1/Sigmoid", "op": "Sigmoid", "input": ["StatefulPartitionedCall/functional_177_1/efficientnetv2-b3_1/block2b_expand_bn_1/batchnorm/add_1"], "attr": {"T": {"type": "DT_FLOAT"}}}, {"name": "StatefulPartitionedCall/functional_177_1/efficientnetv2-b3_1/block2b_expand_activation_1/mul_1", "op": "Mul", "input": ["StatefulPartitionedCall/functional_177_1/efficientnetv2-b3_1/block2b_expand_bn_1/batchnorm/add_1", "StatefulPartitionedCall/functional_177_1/efficientnetv2-b3_1/block2b_expand_activation_1/Sigmoid"], "attr": {"T": {"type": "DT_FLOAT"}}}, {"name": "StatefulPartitionedCall/functional_177_1/efficientnetv2-b3_1/block2b_project_bn_1/batchnorm/mul_1", "op": "Conv2D", "input": ["StatefulPartitionedCall/functional_177_1/efficientnetv2-b3_1/block2b_expand_activation_1/mul_1", "StatefulPartitionedCall/functional_177_1/efficientnetv2-b3_1/block2b_project_conv_1/convolution/merged_input"], "device": "/device:CPU:0", "attr": {"padding": {"s": "U0FNRQ=="}, "data_format": {"s": "TkhXQw=="}, "strides": {"list": {"i": ["1", "1", "1", "1"]}}, "use_cudnn_on_gpu": {"b": true}, "T": {"type": "DT_FLOAT"}, "explicit_paddings": {"list": {}}, "dilations": {"list": {"i": ["1", "1", "1", "1"]}}}}, {"name": "StatefulPartitionedCall/functional_177_1/efficientnetv2-b3_1/block2b_add_1/ArithmeticOptimizer/AddOpsRewrite_Leaf_1_Add", "op": "AddN", "input": ["StatefulPartitionedCall/functional_177_1/efficientnetv2-b3_1/block2b_project_bn_1/batchnorm/mul_1", "StatefulPartitionedCall/functional_177_1/efficientnetv2-b3_1/block2a_project_bn_1/batchnorm/add_1"], "attr": {"N": {"i": "2"}, "T": {"type": "DT_FLOAT"}, "_grappler_ArithmeticOptimizer_AddOpsRewriteStage": {"b": true}}}, {"name": "StatefulPartitionedCall/functional_177_1/efficientnetv2-b3_1/block2b_add_1/ArithmeticOptimizer/AddOpsRewrite_Add", "op": "AddV2", "input": ["StatefulPartitionedCall/functional_177_1/efficientnetv2-b3_1/block2b_project_bn_1/batchnorm/sub", "StatefulPartitionedCall/functional_177_1/efficientnetv2-b3_1/block2b_add_1/ArithmeticOptimizer/AddOpsRewrite_Leaf_1_Add"], "attr": {"T": {"type": "DT_FLOAT"}, "_grappler_ArithmeticOptimizer_AddOpsRewriteStage": {"b": true}}}, {"name": "StatefulPartitionedCall/functional_177_1/efficientnetv2-b3_1/block2c_expand_bn_1/batchnorm/add_1", "op": "_FusedConv2D", "input": ["StatefulPartitionedCall/functional_177_1/efficientnetv2-b3_1/block2b_add_1/ArithmeticOptimizer/AddOpsRewrite_Add", "StatefulPartitionedCall/functional_177_1/efficientnetv2-b3_1/block2c_expand_conv_1/convolution/merged_input", "StatefulPartitionedCall/functional_177_1/efficientnetv2-b3_1/block2c_expand_bn_1/batchnorm/sub"], "device": "/device:CPU:0", "attr": {"num_host_args": {"i": "0"}, "data_format": {"s": "TkhXQw=="}, "filter_format": {"s": "SFdJTw=="}, "strides": {"list": {"i": ["1", "1", "1", "1"]}}, "num_args": {"i": "1"}, "fused_ops": {"list": {"s": ["Qmlhc0FkZA=="]}}, "TArgs": {"list": {"type": ["DT_FLOAT"]}}, "padding": {"s": "U0FNRQ=="}, "use_cudnn_on_gpu": {"b": true}, "leakyrelu_alpha": {"f": 0.2}, "epsilon": {"f": 0.0}, "T": {"type": "DT_FLOAT"}, "explicit_paddings": {"list": {}}, "dilations": {"list": {"i": ["1", "1", "1", "1"]}}}}, {"name": "StatefulPartitionedCall/functional_177_1/efficientnetv2-b3_1/block2c_expand_activation_1/Sigmoid", "op": "Sigmoid", "input": ["StatefulPartitionedCall/functional_177_1/efficientnetv2-b3_1/block2c_expand_bn_1/batchnorm/add_1"], "attr": {"T": {"type": "DT_FLOAT"}}}, {"name": "StatefulPartitionedCall/functional_177_1/efficientnetv2-b3_1/block2c_expand_activation_1/mul_1", "op": "Mul", "input": ["StatefulPartitionedCall/functional_177_1/efficientnetv2-b3_1/block2c_expand_bn_1/batchnorm/add_1", "StatefulPartitionedCall/functional_177_1/efficientnetv2-b3_1/block2c_expand_activation_1/Sigmoid"], "attr": {"T": {"type": "DT_FLOAT"}}}, {"name": "StatefulPartitionedCall/functional_177_1/efficientnetv2-b3_1/block2c_project_bn_1/batchnorm/mul_1", "op": "Conv2D", "input": ["StatefulPartitionedCall/functional_177_1/efficientnetv2-b3_1/block2c_expand_activation_1/mul_1", "StatefulPartitionedCall/functional_177_1/efficientnetv2-b3_1/block2c_project_conv_1/convolution/merged_input"], "device": "/device:CPU:0", "attr": {"padding": {"s": "U0FNRQ=="}, "data_format": {"s": "TkhXQw=="}, "use_cudnn_on_gpu": {"b": true}, "strides": {"list": {"i": ["1", "1", "1", "1"]}}, "T": {"type": "DT_FLOAT"}, "explicit_paddings": {"list": {}}, "dilations": {"list": {"i": ["1", "1", "1", "1"]}}}}, {"name": "StatefulPartitionedCall/functional_177_1/efficientnetv2-b3_1/block2c_add_1/ArithmeticOptimizer/AddOpsRewrite_Leaf_1_Add", "op": "AddN", "input": ["StatefulPartitionedCall/functional_177_1/efficientnetv2-b3_1/block2c_project_bn_1/batchnorm/mul_1", "StatefulPartitionedCall/functional_177_1/efficientnetv2-b3_1/block2b_add_1/ArithmeticOptimizer/AddOpsRewrite_Add"], "attr": {"N": {"i": "2"}, "T": {"type": "DT_FLOAT"}, "_grappler_ArithmeticOptimizer_AddOpsRewriteStage": {"b": true}}}, {"name": "StatefulPartitionedCall/functional_177_1/efficientnetv2-b3_1/block2c_add_1/ArithmeticOptimizer/AddOpsRewrite_Add", "op": "AddV2", "input": ["StatefulPartitionedCall/functional_177_1/efficientnetv2-b3_1/block2c_project_bn_1/batchnorm/sub", "StatefulPartitionedCall/functional_177_1/efficientnetv2-b3_1/block2c_add_1/ArithmeticOptimizer/AddOpsRewrite_Leaf_1_Add"], "attr": {"T": {"type": "DT_FLOAT"}, "_grappler_ArithmeticOptimizer_AddOpsRewriteStage": {"b": true}}}, {"name": "StatefulPartitionedCall/functional_177_1/efficientnetv2-b3_1/block3a_expand_bn_1/batchnorm/add_1", "op": "_FusedConv2D", "input": ["StatefulPartitionedCall/functional_177_1/efficientnetv2-b3_1/block2c_add_1/ArithmeticOptimizer/AddOpsRewrite_Add", "StatefulPartitionedCall/functional_177_1/efficientnetv2-b3_1/block3a_expand_conv_1/convolution/merged_input", "StatefulPartitionedCall/functional_177_1/efficientnetv2-b3_1/block3a_expand_bn_1/batchnorm/sub"], "device": "/device:CPU:0", "attr": {"num_host_args": {"i": "0"}, "data_format": {"s": "TkhXQw=="}, "filter_format": {"s": "SFdJTw=="}, "strides": {"list": {"i": ["1", "2", "2", "1"]}}, "num_args": {"i": "1"}, "fused_ops": {"list": {"s": ["Qmlhc0FkZA=="]}}, "TArgs": {"list": {"type": ["DT_FLOAT"]}}, "padding": {"s": "U0FNRQ=="}, "use_cudnn_on_gpu": {"b": true}, "leakyrelu_alpha": {"f": 0.2}, "epsilon": {"f": 0.0}, "T": {"type": "DT_FLOAT"}, "explicit_paddings": {"list": {}}, "dilations": {"list": {"i": ["1", "1", "1", "1"]}}}}, {"name": "StatefulPartitionedCall/functional_177_1/efficientnetv2-b3_1/block3a_expand_activation_1/Sigmoid", "op": "Sigmoid", "input": ["StatefulPartitionedCall/functional_177_1/efficientnetv2-b3_1/block3a_expand_bn_1/batchnorm/add_1"], "attr": {"T": {"type": "DT_FLOAT"}}}, {"name": "StatefulPartitionedCall/functional_177_1/efficientnetv2-b3_1/block3a_expand_activation_1/mul_1", "op": "Mul", "input": ["StatefulPartitionedCall/functional_177_1/efficientnetv2-b3_1/block3a_expand_bn_1/batchnorm/add_1", "StatefulPartitionedCall/functional_177_1/efficientnetv2-b3_1/block3a_expand_activation_1/Sigmoid"], "attr": {"T": {"type": "DT_FLOAT"}}}, {"name": "StatefulPartitionedCall/functional_177_1/efficientnetv2-b3_1/block3a_project_bn_1/batchnorm/add_1", "op": "_FusedConv2D", "input": ["StatefulPartitionedCall/functional_177_1/efficientnetv2-b3_1/block3a_expand_activation_1/mul_1", "StatefulPartitionedCall/functional_177_1/efficientnetv2-b3_1/block3a_project_conv_1/convolution/merged_input", "StatefulPartitionedCall/functional_177_1/efficientnetv2-b3_1/block3a_project_bn_1/batchnorm/sub"], "device": "/device:CPU:0", "attr": {"num_host_args": {"i": "0"}, "data_format": {"s": "TkhXQw=="}, "filter_format": {"s": "SFdJTw=="}, "fused_ops": {"list": {"s": ["Qmlhc0FkZA=="]}}, "num_args": {"i": "1"}, "strides": {"list": {"i": ["1", "1", "1", "1"]}}, "TArgs": {"list": {"type": ["DT_FLOAT"]}}, "padding": {"s": "U0FNRQ=="}, "use_cudnn_on_gpu": {"b": true}, "leakyrelu_alpha": {"f": 0.2}, "epsilon": {"f": 0.0}, "T": {"type": "DT_FLOAT"}, "explicit_paddings": {"list": {}}, "dilations": {"list": {"i": ["1", "1", "1", "1"]}}}}, {"name": "StatefulPartitionedCall/functional_177_1/efficientnetv2-b3_1/block3b_expand_bn_1/batchnorm/add_1", "op": "_FusedConv2D", "input": ["StatefulPartitionedCall/functional_177_1/efficientnetv2-b3_1/block3a_project_bn_1/batchnorm/add_1", "StatefulPartitionedCall/functional_177_1/efficientnetv2-b3_1/block3b_expand_conv_1/convolution/merged_input", "StatefulPartitionedCall/functional_177_1/efficientnetv2-b3_1/block3b_expand_bn_1/batchnorm/sub"], "device": "/device:CPU:0", "attr": {"num_host_args": {"i": "0"}, "data_format": {"s": "TkhXQw=="}, "filter_format": {"s": "SFdJTw=="}, "fused_ops": {"list": {"s": ["Qmlhc0FkZA=="]}}, "num_args": {"i": "1"}, "strides": {"list": {"i": ["1", "1", "1", "1"]}}, "TArgs": {"list": {"type": ["DT_FLOAT"]}}, "padding": {"s": "U0FNRQ=="}, "use_cudnn_on_gpu": {"b": true}, "leakyrelu_alpha": {"f": 0.2}, "epsilon": {"f": 0.0}, "T": {"type": "DT_FLOAT"}, "explicit_paddings": {"list": {}}, "dilations": {"list": {"i": ["1", "1", "1", "1"]}}}}, {"name": "StatefulPartitionedCall/…
 "int32"}, {"name": "StatefulPartitionedCall/functional_177_1/efficientnetv2-b3_1/block5d_se_reduce_1/convolution/ReadVariableOp", "shape": [1, 1, 816, 34], "dtype": "float32", "quantization": {"dtype": "uint16", "min": -0.8322827209867528, "scale": 2.6510040483731576e-05, "original_dtype": "float32"}}, {"name": "StatefulPartitionedCall/functional_177_1/efficientnetv2-b3_1/block5d_se_reduce_1/Squeeze", "shape": [34], "dtype": "float32", "quantization": {"dtype": "uint16", "min": 0.028178129345178604, "scale": 2.0335541750024657e-05, "original_dtype": "float32"}}, {"name": "StatefulPartitionedCall/functional_177_1/efficientnetv2-b3_1/block5d_se_expand_1/convolution/ReadVariableOp", "shape": [1, 1, 34, 816], "dtype": "float32", "quantization": {"dtype": "uint16", "min": -0.7201008848370172, "scale": 2.4361476532934714e-05, "original_dtype": "float32"}}, {"name": "StatefulPartitionedCall/functional_177_1/efficientnetv2-b3_1/block5d_se_expand_1/Squeeze", "shape": [816], "dtype": "float32", "quantization": {"dtype": "uint16", "min": -2.6305145567702404, "scale": 5.9489677433855904e-05, "original_dtype": "float32"}}, {"name": "StatefulPartitionedCall/functional_177_1/efficientnetv2-b3_1/block5d_project_conv_1/convolution/merged_input", "shape": [1, 1, 816, 136], "dtype": "float32", "quantization": {"dtype": "uint16", "min": -3.3189350472186354, "scale": 0.00010431981918021799, "original_dtype": "float32"}}, {"name": "StatefulPartitionedCall/functional_177_1/efficientnetv2-b3_1/block5c_project_bn_1/batchnorm/sub", "shape": [1, 1, 1, 136], "dtype": "float32", "quantization": {"dtype": "uint16", "min": -1.9079342913698567, "scale": 8.003751536915247e-05, "original_dtype": "float32"}}, {"name": "StatefulPartitionedCall/functional_177_1/efficientnetv2-b3_1/block5c_expand_conv_1/convolution/merged_input", "shape": [1, 1, 136, 816], "dtype": "float32", "quantization": {"dtype": "uint16", "min": -0.09940458965993194, "scale": 3.193721756142392e-06, "original_dtype": "float32"}}, {"name": "StatefulPartitionedCall/functional_177_1/efficientnetv2-b3_1/block5c_expand_bn_1/batchnorm/sub", "shape": [1, 1, 1, 816], "dtype": "float32", "quantization": {"dtype": "uint16", "min": -3.233348964417, "scale": 8.33229986964824e-05, "original_dtype": "float32"}}, {"name": "StatefulPartitionedCall/functional_177_1/efficientnetv2-b3_1/block5c_dwconv2_1/depthwise/ReadVariableOp", "shape": [3, 3, 816, 1], "dtype": "float32", "quantization": {"dtype": "uint16", "min": -0.5686988756295936, "scale": 1.677132547788474e-05, "original_dtype": "float32"}}, {"name": "StatefulPartitionedCall/functional_177_1/efficientnetv2-b3_1/block5c_bn_1/batchnorm/mul", "shape": [1, 1, 1, 816], "dtype": "float32", "quantization": {"dtype": "uint16", "min": 1.5446950197219849, "scale": 0.0005715207248855675, "original_dtype": "float32"}}, {"name": "StatefulPartitionedCall/functional_177_1/efficientnetv2-b3_1/block5c_bn_1/batchnorm/sub", "shape": [1, 1, 1, 816], "dtype": "float32", "quantization": {"dtype": "uint16", "min": -4.2440967470537085, "scale": 0.00012498444347420882, "original_dtype": "float32"}}, {"name": "StatefulPartitionedCall/functional_177_1/efficientnetv2-b3_1/block5c_se_squeeze_1/Mean/reduction_indices", "shape": [2], "dtype": "int32"}, {"name": "StatefulPartitionedCall/functional_177_1/efficientnetv2-b3_1/block5c_se_reshape_1/strided_slice/stack", "shape": [1], "dtype": "int32"}, {"name": "StatefulPartitionedCall/functional_177_1/efficientnetv2-b3_1/block5c_se_reshape_1/strided_slice/stack_1", "shape": [1], "dtype": "int32"}, {"name": "StatefulPartitionedCall/functional_177_1/efficientnetv2-b3_1/block5c_se_reshape_1/strided_slice/stack_2", "shape": [1], "dtype": "int32"}, {"name": "StatefulPartitionedCall/functional_177_1/efficientnetv2-b3_1/block5c_se_reshape_1/Reshape/shape/1", "shape": [], "dtype": "int32"}, {"name": "StatefulPartitionedCall/functional_177_1/efficientnetv2-b3_1/block5c_se_reshape_1/Reshape/shape/2", "shape": [], "dtype": "int32"}, {"name": "StatefulPartitionedCall/functional_177_1/efficientnetv2-b3_1/block5c_se_reshape_1/Reshape/shape/3", "shape": [], "dtype": "int32"}, {"name": "StatefulPartitionedCall/functional_177_1/efficientnetv2-b3_1/block5c_se_reduce_1/convolution/ReadVariableOp", "shape": [1, 1, 816, 34], "dtype": "float32", "quantization": {"dtype": "uint16", "min": -0.5983311738212639, "scale": 2.081224299353939e-05, "original_dtype": "float32"}}, {"name": "StatefulPartitionedCall/functional_177_1/efficientnetv2-b3_1/block5c_se_reduce_1/Squeeze", "shape": [34], "dtype": "float32", "quantization": {"dtype": "uint16", "min": -0.02762062991254115, "scale": 2.0474892448140217e-05, "original_dtype": "float32"}}, {"name": "StatefulPartitionedCall/functional_177_1/efficientnetv2-b3_1/block5c_se_expand_1/convolution/ReadVariableOp", "shape": [1, 1, 34, 816], "dtype": "float32", "quantization": {"dtype": "uint16", "min": -0.8255826202439, "scale": 2.1835033595448292e-05, "original_dtype": "float32"}}, {"name": "StatefulPartitionedCall/functional_177_1/efficientnetv2-b3_1/block5c_se_expand_1/Squeeze", "shape": [816], "dtype": "float32", "quantization": {"dtype": "uint16", "min": -2.2835277649706356, "scale": 5.241897401397139e-05, "original_dtype": "float32"}}, {"name": "StatefulPartitionedCall/functional_177_1/efficientnetv2-b3_1/block5c_project_conv_1/convolution/merged_input", "shape": [1, 1, 816, 136], "dtype": "float32", "quantization": {"dtype": "uint16", "min": -3.26328405492446, "scale": 9.998112855554582e-05, "original_dtype": "float32"}}, {"name": "StatefulPartitionedCall/functional_177_1/efficientnetv2-b3_1/block5b_project_bn_1/batchnorm/sub", "shape": [1, 1, 1, 136], "dtype": "float32", "quantization": {"dtype": "uint16", "min": -2.5353186230242204, "scale": 9.040825243462612e-05, "original_dtype": "float32"}}, {"name": "StatefulPartitionedCall/functional_177_1/efficientnetv2-b3_1/block5b_expand_conv_1/convolution/merged_input", "shape": [1, 1, 136, 816], "dtype": "float32", "quantization": {"dtype": "uint16", "min": -0.10778714424641388, "scale": 3.840898843545376e-06, "original_dtype": "float32"}}, {"name": "StatefulPartitionedCall/functional_177_1/efficientnetv2-b3_1/block5b_expand_bn_1/batchnorm/sub", "shape": [1, 1, 1, 816], "dtype": "float32", "quantization": {"dtype": "uint16", "min": -3.5341468542439083, "scale": 8.653428795190883e-05, "original_dtype": "float32"}}, {"name": "StatefulPartitionedCall/functional_177_1/efficientnetv2-b3_1/block5b_dwconv2_1/depthwise/ReadVariableOp", "shape": [3, 3, 816, 1], "dtype": "float32", "quantization": {"dtype": "uint16", "min": -0.57108420362514, "scale": 1.6692023605797213e-05, "original_dtype": "float32"}}, {"name": "StatefulPartitionedCall/functional_177_1/efficientnetv2-b3_1/block5b_bn_1/batchnorm/mul", "shape": [1, 1, 1, 816], "dtype": "float32", "quantization": {"dtype": "uint16", "min": 0.9535736441612244, "scale": 0.0007710987428164713, "original_dtype": "float32"}}, {"name": "StatefulPartitionedCall/functional_177_1/efficientnetv2-b3_1/block5b_bn_1/batchnorm/sub", "shape": [1, 1, 1, 816], "dtype": "float32", "quantization": {"dtype": "uint16", "min": -7.366198036877507, "scale": 0.0002117271143938808, "original_dtype": "float32"}}, {"name": "StatefulPartitionedCall/functional_177_1/efficientnetv2-b3_1/block5b_se_squeeze_1/Mean/reduction_indices", "shape": [2], "dtype": "int32"}, {"name": "StatefulPartitionedCall/functional_177_1/efficientnetv2-b3_1/block5b_se_reshape_1/strided_slice/stack", "shape": [1], "dtype": "int32"}, {"name": "StatefulPartitionedCall/functional_177_1/efficientnetv2-b3_1/block5b_se_reshape_1/strided_slice/stack_1", "shape": [1], "dtype": "int32"}, {"name": "StatefulPartitionedCall/functional_177_1/efficientnetv2-b3_1/block5b_se_reshape_1/strided_slice/stack_2", "shape": [1], "dtype": "int32"}, {"name": "StatefulPartitionedCall/functional_177_1/efficientnetv2-b3_1/block5b_se_reshape_1/Reshape/shape/1", "shape": [], "dtype": "int32"}, {"name": "StatefulPartitionedCall/functional_177_1/efficientnetv2-b3_1/block5b_se_reshape_1/Reshape/shape/2", "shape": [], "dtype": "int32"}, {"name": "StatefulPartitionedCall/functional_177_1/efficientnetv2-b3_1/block5b_se_reshape_1/Reshape/shape/3", "shape": [], "dtype": "int32"}, {"name": "StatefulPartitionedCall/functional_177_1/efficientnetv2-b3_1/block5b_se_reduce_1/convolution/ReadVariableOp", "shape": [1, 1, 816, 34], "dtype": "float32", "quantization": {"dtype": "uint16", "min": -0.6897035808414801, "scale": 2.70291797954885e-05, "original_dtype": "float32"}}, {"name": "StatefulPartitionedCall/functional_177_1/efficientnetv2-b3_1/block5b_se_reduce_1/Squeeze", "shape": [34], "dtype": "float32", "quantization": {"dtype": "uint16", "min": -0.24257935003575104, "scale": 2.1217471357977e-05, "original_dtype": "float32"}}, {"name": "StatefulPartitionedCall/functional_177_1/efficientnetv2-b3_1/block5b_se_expand_1/convolution/ReadVariableOp", "shape": [1, 1, 34, 816], "dtype": "float32", "quantization": {"dtype": "uint16", "min": -0.811056795605553, "scale": 2.4359717543341434e-05, "original_dtype": "float32"}}, {"name": "StatefulPartitionedCall/functional_177_1/efficientnetv2-b3_1/block5b_se_expand_1/Squeeze", "shape": [816], "dtype": "float32", "quantization": {"dtype": "uint16", "min": -2.491567894100388, "scale": 5.849300155179801e-05, "original_dtype": "float32"}}, {"name": "StatefulPartitionedCall/functional_177_1/efficientnetv2-b3_1/block5b_project_conv_1/convolution/merged_input", "shape": [1, 1, 816, 136], "dtype": "float32", "quantization": {"dtype": "uint16", "min": -2.5169012120489107, "scale": 0.00010008753378331057, "original_dtype": "float32"}}, {"name": "StatefulPartitionedCall/functional_177_1/efficientnetv2-b3_1/block4e_project_bn_1/batchnorm/sub", "shape": [1, 1, 1, 112], "dtype": "float32", "quantization": {"dtype": "uint16", "min": -4.306018305505142, "scale": 0.000126710952697088, "original_dtype": "float32"}}, {"name": "StatefulPartitionedCall/functional_177_1/efficientnetv2-b3_1/block4e_expand_conv_1/convolution/merged_input", "shape": [1, 1, 112, 448], "dtype": "float32", "quantization": {"dtype": "uint16", "min": -0.13430883325696075, "scale": 3.88692577579906e-06, "original_dtype": "float32"}}, {"name": "StatefulPartitionedCall/functional_177_1/efficientnetv2-b3_1/block4e_expand_bn_1/batchnorm/sub", "shape": [1, 1, 1, 448], "dtype": "float32", "quantization": {"dtype": "uint16", "min": -2.8661843662868787, "scale": 7.443861329438185e-05, "original_dtype": "float32"}}, {"name": "StatefulPartitionedCall/functional_177_1/efficientnetv2-b3_1/block4e_dwconv2_1/depthwise/ReadVariableOp", "shape": [3, 3, 448, 1], "dtype": "float32", "quantization": {"dtype": "uint16", "min": -0.5682244656096337, "scale": 1.6934122056612536e-05, "original_dtype": "float32"}}, {"name": "StatefulPartitionedCall/functional_177_1/efficientnetv2-b3_1/block4e_bn_1/batchnorm/mul", "shape": [1, 1, 1, 448], "dtype": "float32", "quantization": {"dtype": "uint16", "min": 1.0565986633300781, "scale": 0.0006996869004053774, "original_dtype": "float32"}}, {"name": "StatefulPartitionedCall/functional_177_1/efficientnetv2-b3_1/block4e_bn_1/batchnorm/sub", "shape": [1, 1, 1, 448], "dtype": "float32", "quantization": {"dtype": "uint16", "min": -3.1603557578739006, "scale": 0.0001025922985837981, "original_dtype": "float32"}}, {"name": "StatefulPartitionedCall/functional_177_1/efficientnetv2-b3_1/block4e_se_squeeze_1/Mean/reduction_indices", "shape": [2], "dtype": "int32"}, {"name": "StatefulPartitionedCall/functional_177_1/efficientnetv2-b3_1/block4e_se_reshape_1/strided_slice/stack", "shape": [1], "dtype": "int32"}, {"name": "StatefulPartitionedCall/functional_177_1/efficientnetv2-b3_1/block4e_se_reshape_1/strided_slice/stack_1", "shape": [1], "dtype": "int32"}, {"name": "StatefulPartitionedCall/functional_177_1/efficientnetv2-b3_1/block4e_se_reshape_1/strided_slice/stack_2", "shape": [1], "dtype": "int32"}, {"name": "StatefulPartitionedCall/functional_177_1/efficientnetv2-b3_1/block4e_se_reshape_1/Reshape/shape/1", "shape": [], "dtype": "int32"}, {"name": "StatefulPartitionedCall/functional_177_1/efficientnetv2-b3_1/block4e_se_reshape_1/Reshape/shape/2", "shape": [], "dtype": "int32"}, {"name": "StatefulPartitionedCall/functional_177_1/efficientnetv2-b3_1/block4e_se_reshape_1/Reshape/shape/3", "shape": [], "dtype": "int32"}, {"name": "StatefulPartitionedCall/functional_177_1/efficientnetv2-b3_1/block4e_se_reduce_1/convolution/ReadVariableOp", "shape": [1, 1, 448, 28], "dtype": "float32", "quantization": {"dtype": "uint16", "min": -1.2454032493981888, "scale": 3.3968013566391795e-05, "original_dtype": "float32"}}, {"name": "StatefulPartitionedCall/functional_177_1/efficientnetv2-b3_1/block4e_se_reduce_1/Squeeze", "shape": [28], "dtype": "float32", "quantization": {"dtype": "uint16", "min": -0.39619382083520577, "scale": 2.61548601026674e-05, "original_dtype": "float32"}}, {"name": "StatefulPartitionedCall/functional_177_1/efficientnetv2-b3_1/block4e_se_expand_1/convolution/ReadVariableOp", "shape": [1, 1, 28, 448], "dtype": "float32", "quantization": {"dtype": "uint16", "min": -1.0864715513688636, "scale": 3.098008415651165e-05, "original_dtype": "float32"}}, {"name": "StatefulPartitionedCall/functional_177_1/efficientnetv2-b3_1/block4e_se_expand_1/Squeeze", "shape": [448], "dtype": "float32", "quantization": {"dtype": "uint16", "min": -2.257729918766487, "scale": 4.8489721414198307e-05, "original_dtype": "float32"}}, {"name": "StatefulPartitionedCall/functional_177_1/efficientnetv2-b3_1/block4e_project_conv_1/convolution/merged_input", "shape": [1, 1, 448, 112], "dtype": "float32", "quantization": {"dtype": "uint16", "min": -2.2867442911801024, "scale": 7.28146566209235e-05, "original_dtype": "float32"}}, {"name": "StatefulPartitionedCall/functional_177_1/efficientnetv2-b3_1/block4d_project_bn_1/batchnorm/sub", "shape": [1, 1, 1, 112], "dtype": "float32", "quantization": {"dtype": "uint16", "min": -4.418596660789804, "scale": 0.0001469681244234094, "original_dtype": "float32"}}, {"name": "StatefulPartitionedCall/functional_177_1/efficientnetv2-b3_1/block4d_expand_conv_1/convolution/merged_input", "shape": [1, 1, 112, 448], "dtype": "float32", "quantization": {"dtype": "uint16", "min": -0.1625914241380474, "scale": 4.626961415425367e-06, "original_dtype": "float32"}}, {"name": "StatefulPartitionedCall/functional_177_1/efficientnetv2-b3_1/block4d_expand_bn_1/batchnorm/sub", "shape": [1, 1, 1, 448], "dtype": "float32", "quantization": {"dtype": "uint16", "min": -4.461333510389478, "scale": 9.834524094853801e-05, "original_dtype": "float32"}}, {"name": "StatefulPartitionedCall/functional_177_1/efficientnetv2-b3_1/block4d_dwconv2_1/depthwise/ReadVariableOp", "shape": [3, 3, 448, 1], "dtype": "float32", "quantization": {"dtype": "uint16", "min": -0.5863832365423315, "scale": 1.835947388904886e-05, "original_dtype": "float32"}}, {"name": "StatefulPartitionedCall/functional_177_1/efficientnetv2-b3_1/block4d_bn_1/batchnorm/mul", "shape": [1, 1, 1, 448], "dtype": "float32", "quantization": {"dtype": "uint16", "min": 0.7832369208335876, "scale": 0.0006910989938815853, "original_dtype": "float32"}}, {"name": "StatefulPartitionedCall/functional_177_1/efficientnetv2-b3_1/block4d_bn_1/batchnorm/sub", "shape": [1, 1, 1, 448], "dtype": "float32", "quantization": {"dtype": "uint16", "min": -3.8806049727171175, "scale": 0.00010934361715179255, "original_dtype": "float32"}}, {"name": "StatefulPartitionedCall/functional_177_1/efficientnetv2-b3_1/block4d_se_squeeze_1/Mean/reduction_indices", "shape": [2], "dtype": "int32"}, {"name": "StatefulPartitionedCall/functional_177_1/efficientnetv2-b3_1/block4d_se_reshape_1/strided_slice/stack", "shape": [1], "dtype": "int32"}, {"name": "StatefulPartitionedCall/functional_177_1/efficientnetv2-b3_1/block4d_se_reshape_1/strided_slice/stack_1", "shape": [1], "dtype": "int32"}, {"name": "StatefulPartitionedCall/functional_177_1/efficientnetv2-b3_1/block4d_se_reshape_1/strided_slice/stack_2", "shape": [1], "dtype": "int32"}, {"name": "StatefulPartitionedCall/functional_177_1/efficientnetv2-b3_1/block4d_se_reshape_1/Reshape/shape/1", "shape": [], "dtype": "int32"}, {"name": "StatefulPartitionedCall/functional_177_1/efficientnetv2-b3_1/block4d_se_reshape_1/Reshape/shape/2", "shape": [], "dtype": "int32"}, {"name": "StatefulPartitionedCall/functional_177_1/efficientnetv2-b3_1/block4d_se_reshape_1/Reshape/shape/3", "shape": [], "dtype": "int32"}, {"name": "StatefulPartitionedCall/functional_177_1/efficientnetv2-b3_1/block4d_se_reduce_1/convolution/ReadVariableOp", "shape": [1, 1, 448, 28], "dtype": "float32", "quantization": {"dtype": "uint16", "min": -1.225716437118008, "scale": 3.11206123271723e-05, "original_dtype": "float32"}}, {"name": "StatefulPartitionedCall/functional_177_1/efficientnetv2-b3_1/block4d_se_reduce_1/Squeeze", "shape": [28], "dtype": "float32", "quantization": {"dtype": "uint16", "min": -0.09382942382490969, "scale": 2.1028557558249596e-05, "original_dtype": "float32"}}, {"name": "StatefulPartitionedCall/functional_177_1/efficientnetv2-b3_1/block4d_se_expand_1/convolution/ReadVariableOp", "shape": [1, 1, 28, 448], "dtype": "float32", "quantization": {"dtype": "uint16", "min": -0.6426449572920864, "scale": 3.1362303318143885e-05, "original_dtype": "float32"}}, {"name": "StatefulPartitionedCall/functional_177_1/efficientnetv2-b3_1/block4d_se_expand_1/Squeeze", "shape": [448], "dtype": "float32", "quantization": {"dtype": "uint16", "min": -2.393312577098242, "scale": 5.062533214380205e-05, "original_dtype": "float32"}}, {"name": "StatefulPartitionedCall/functional_177_1/efficientnetv2-b3_1/block4d_project_conv_1/convolution/merged_input", "shape": [1, 1, 448, 112], "dtype": "float32", "quantization": {"dtype": "uint16", "min": -4.287396136950581, "scale": 0.00012692489821932506, "original_dtype": "float32"}}, {"name": "StatefulPartitionedCall/functional_177_1/efficientnetv2-b3_1/block4c_project_bn_1/batchnorm/sub", "shape": [1, 1, 1, 112], "dtype": "float32", "quantization": {"dtype": "uint16", "min": -6.003888962235542, "scale": 0.00017266447032772178, "original_dtype": "float32"}}, {"name": "StatefulPartitionedCall/functional_177_1/efficientnetv2-b3_1/block4c_expand_conv_1/convolution/merged_input", "shape": [1, 1, 112, 448], "dtype": "float32", "quantization": {"dtype": "uint16", "min": -0.12184904719245801, "scale": 3.917345995578139e-06, "original_dtype": "float32"}}, {"name": "StatefulPartitionedCall/functional_177_1/efficientnetv2-b3_1/block4c_expand_bn_1/batchnorm/sub", "shape": [1, 1, 1, 448], "dtype": "float32", "quantization": {"dtype": "uint16", "min": -3.9132190314712227, "scale": 0.00010686599572535974, "original_dtype": "float32"}}, {"name": "StatefulPartitionedCall/functional_177_1/efficientnetv2-b3_1/block4c_dwconv2_1/depthwise/ReadVariableOp", "shape": [3, 3, 448, 1], "dtype": "float32", "quantization": {"dtype": "uint16", "min": -0.7309933719240647, "scale": 1.9481208110334052e-05, "original_dtype": "float32"}}, {"name": "StatefulPartitionedCall/functional_177_1/efficientnetv2-b3_1/block4c_bn_1/batchnorm/mul", "shape": [1, 1, 1, 448], "dtype": "float32", "quantization": {"dtype": "uint16", "min": 1.4293501377105713, "scale": 0.0006025250992877192, "original_dtype": "float32"}}, {"name": "StatefulPartitionedCall/functional_177_1/efficientnetv2-b3_1/block4c_bn_1/batchnorm/sub", "shape": [1, 1, 1, 448], "dtype": "float32", "quantization": {"dtype": "uint16", "min": -5.600920492001835, "scale": 0.00019589802707152025, "original_dtype": "float32"}}, {"name": "StatefulPartitionedCall/functional_177_1/efficientnetv2-b3_1/block4c_se_squeeze_1/Mean/reduction_indices", "shape": [2], "dtype": "int32"}, {"name": "StatefulPartitionedCall/functional_177_1/efficientnetv2-b3_1/block4c_se_reshape_1/strided_slice/stack", "shape": [1], "dtype": "int32"}, {"name": "StatefulPartitionedCall/functional_177_1/efficientnetv2-b3_1/block4c_se_reshape_1/strided_slice/stack_1", "shape": [1], "dtype": "int32"}, {"name": "StatefulPartitionedCall/functional_177_1/efficientnetv2-b3_1/block4c_se_reshape_1/strided_slice/stack_2", "shape": [1], "dtype": "int32"}, {"name": "StatefulPartitionedCall/functional_177_1/efficientnetv2-b3_1/block4c_se_reshape_1/Reshape/shape/1", "shape": [], "dtype": "int32"}, {"name": "StatefulPartitionedCall/functional_177_1/efficientnetv2-b3_1/block4c_se_reshape_1/Reshape/shape/2", "shape": [], "dtype": "int32"}, {"name": "StatefulPartitionedCall/functional_177_1/efficientnetv2-b3_1/block4c_se_reshape_1/Reshape/shape/3", "shape": [], "dtype": "int32"}, {"name": "StatefulPartitionedCall/functional_177_1/efficientnetv2-b3_1/block4c_se_reduce_1/convolution/ReadVariableOp", "shape": [1, 1, 448, 28], "dtype": "float32", "quantization": {"dtype": "uint16", "min": -0.9782457998981827, "scale": 3.4452553352757016e-05, "original_dtype": "float32"}}, {"name": "StatefulPartitionedCall/functional_177_1/efficientnetv2-b3_1/block4c_se_reduce_1/Squeeze", "shape": [28], "dtype": "float32", "quantization": {"dtype": "uint16", "min": -0.31398785547441793, "scale": 1.8399522735096275e-05, "original_dtype": "float32"}}, {"name": "StatefulPartitionedCall/functional_177_1/efficientnetv2-b3_1/block4c_se_expand_1/convolution/ReadVariableOp", "shape": [1, 1, 28, 448], "dtype": "float32", "quantization": {"dtype": "uint16", "min": -0.6636317837344724, "scale": 2.985566779442471e-05, "original_dtype": "float32"}}, {"name": "StatefulPartitionedCall/functional_177_1/efficientnetv2-b3_1/block4c_se_expand_1/Squeeze", "shape": [448], "dtype": "float32", "quantization": {"dtype": "uint16", "min": -2.591301280327844, "scale": 5.3329929621894306e-05, "original_dtype": "float32"}}, {"name": "StatefulPartitionedCall/functional_177_1/efficientnetv2-b3_1/block4c_project_conv_1/convolution/merged_input", "shape": [1, 1, 448, 112], "dtype": "float32", "quantization": {"dtype": "uint16", "min": -3.5536567987980594, "scale": 0.00010196128880722059, "original_dtype": "float32"}}, {"name": "StatefulPartitionedCall/functional_177_1/efficientnetv2-b3_1/block4b_project_bn_1/batchnorm/sub", "shape": [1, 1, 1, 112], "dtype": "float32", "quantization": {"dtype": "uint16", "min": -8.73634415543797, "scale": 0.00023689211083375281, "original_dtype": "float32"}}, {"name": "StatefulPartitionedCall/functional_177_1/efficientnetv2-b3_1/block4b_expand_conv_1/convolution/merged_input", "shape": [1, 1, 112, 448], "dtype": "float32", "quantization": {"dtype": "uint16", "min": -0.17771392506520625, "scale": 4.310933559703237e-06, "original_dtype": "float32"}}, {"name": "StatefulPartitionedCall/functional_177_1/efficientnetv2-b3_1/block4b_expand_bn_1/batchnorm/sub", "shape": [1, 1, 1, 448], "dtype": "float32", "quantization": {"dtype": "uint16", "min": -4.805456940078386, "scale": 0.00010777225190245096, "original_dtype": "float32"}}, {"name": "StatefulPartitionedCall/functional_177_1/efficientnetv2-b3_1/block4b_dwconv2_1/depthwise/ReadVariableOp", "shape": [3, 3, 448, 1], "dtype": "float32", "quantization": {"dtype": "uint16", "min": -0.7357001363708142, "scale": 2.070470088004993e-05, "original_dtype": "float32"}}, {"name": "StatefulPartitionedCall/functional_177_1/efficientnetv2-b3_1/block4b_bn_1/batchnorm/mul", "shape": [1, 1, 1, 448], "dtype": "float32", "quantization": {"dtype": "uint16", "min": 0.8392571210861206, "scale": 0.0007937961997325172, "original_dtype": "float32"}}, {"name": "StatefulPartitionedCall/functional_177_1/efficientnetv2-b3_1/block4b_bn_1/batchnorm/sub", "shape": [1, 1, 1, 448], "dtype": "float32", "quantization": {"dtype": "uint16", "min": -6.065445340331836, "scale": 0.00021014604650701021, "original_dtype": "float32"}}, {"name": "StatefulPartitionedCall/functional_177_1/efficientnetv2-b3_1/block4b_se_squeeze_1/Mean/reduction_indices", "shape": [2], "dtype": "int32"}, {"name": "StatefulPartitionedCall/functional_177_1/efficientnetv2-b3_1/block4b_se_reshape_1/strided_slice/stack", "shape": [1], "dtype": "int32"}, {"name": "StatefulPartitionedCall/functional_177_1/efficientnetv2-b3_1/block4b_se_reshape_1/strided_slice/stack_1", "shape": [1], "dtype": "int32"}, {"name": "StatefulPartitionedCall/functional_177_1/efficientnetv2-b3_1/block4b_se_reshape_1/strided_slice/stack_2", "shape": [1], "dtype": "int32"}, {"name": "StatefulPartitionedCall/functional_177_1/efficientnetv2-b3_1/block4b_se_reshape_1/Reshape/shape/1", "shape": [], "dtype": "int32"}, {"name": "StatefulPartitionedCall/functional_177_1/efficientnetv2-b3_1/block4b_se_reshape_1/Reshape/shape/2", "shape": [], "dtype": "int32"}, {"name": "StatefulPartitionedCall/functional_177_1/efficientnetv2-b3_1/block4b_se_reshape_1/Reshape/shape/3", "shape": [], "dtype": "int32"}, {"name": "StatefulPartitionedCall/functional_177_1/efficientnetv2-b3_1/block4b_se_reduce_1/convolution/ReadVariableOp", "shape": [1, 1, 448, 28], "dtype": "float32", "quantization": {"dtype": "uint16", "min": -1.1444276715249013, "scale": 4.132850642898058e-05, "original_dtype": "float32"}}, {"name": "StatefulPartitionedCall/functional_177_1/efficientnetv2-b3_1/block4b_se_reduce_1/Squeeze", "shape": [28], "dtype": "float32", "quantization": {"dtype": "uint16", "min": -0.24819877505884516, "scale": 1.557374506236087e-05, "original_dtype": "float32"}}, {"name": "StatefulPartitionedCall/functional_177_1/efficientnetv2-b3_1/block4b_se_expand_1/convolution/ReadVariableOp", "shape": [1, 1, 28, 448], "dtype": "float32", "quantization": {"dtype": "uint16", "min": -1.1249876003857653, "scale": 2.8403039799681006e-05, "original_dtype": "float32"}}, {"name": "StatefulPartitionedCall/functional_177_1/efficientnetv2-b3_1/block4b_se_expand_1/Squeeze", "shape": [448], "dtype": "float32", "quantization": {"dtype": "uint16", "min": -2.503622385732841, "scale": 7.281146970285999e-05, "original_dtype": "float32"}}, {"name": "StatefulPartitionedCall/functional_177_1/efficientnetv2-b3_1/block4b_project_conv_1/convolution/merged_input", "shape": [1, 1, 448, 112], "dtype": "float32", "quantization": {"dtype": "uint16", "min": -2.8830360143346736, "scale": 8.175346701643765e-05, "original_dtype": "float32"}}, {"name": "StatefulPartitionedCall/functional_177_1/efficientnetv2-b3_1/block3c_project_bn_1/batchnorm/sub", "shape": [1, 1, 1, 56], "dtype": "float32", "quantization": {"dtype": "uint16", "min": -5.230030583836917, "scale": 0.0001402378555219852, "original_dtype": "float32"}}, {"name": "StatefulPartitionedCall/functional_177_1/efficientnetv2-b3_1/block3c_expand_conv_1/convolution/merged_input", "shape": [3, 3, 56, 224], "dtype": "float32", "quantization": {"dtype": "uint16", "min": -0.08877195772259662, "scale": 2.963708400580797e-06, "original_dtype": "float32"}}, {"name": "StatefulPartitionedCall/functional_177_1/efficientnetv2-b3_1/block3c_expand_bn_1/batchnorm/sub", "shape": [1, 1, 1, 224], "dtype": "float32", "quantization": {"dtype": "uint16", "min": -3.3920452946191197, "scale": 8.643254668414115e-05, "original_dtype": "float32"}}, {"name": "StatefulPartitionedCall/functional_177_1/efficientnetv2-b3_1/block3c_project_conv_1/convolution/merged_input", "shape": [1, 1, 224, 56], "dtype": "float32", "quantization": {"dtype": "uint16", "min": -4.393705507495124, "scale": 0.0001450594442700361, "original_dtype": "float32"}}, {"name": "StatefulPartitionedCall/functional_177_1/efficientnetv2-b3_1/block3b_project_bn_1/batchnorm/sub", "shape": [1, 1, 1, 56], "dtype": "float32", "quantization": {"dtype": "uint16", "min": -4.451027464959408, "scale": 0.0002111693455242152, "original_dtype": "float32"}}, {"name": "StatefulPartitionedCall/functional_177_1/efficientnetv2-b3_1/block3b_expand_conv_1/convolution/merged_input", "shape": [3, 3, 56, 224], "dtype": "float32", "quantization": {"dtype": "uint16", "min": -0.14409339603255775, "scale": 3.737831284891252e-06, "original_dtype": "float32"}}, {"name": "StatefulPartitionedCall/functional_177_1/efficientnetv2-b3_1/block3b_expand_bn_1/batchnorm/sub", "shape": [1, 1, 1, 224], "dtype": "float32", "quantization": {"dtype": "uint16", "min": -4.129499588702466, "scale": 0.00011759595593753464, "original_dtype": "float32"}}, {"name": "StatefulPartitionedCall/functional_177_1/efficientnetv2-b3_1/block3b_project_conv_1/convolution/merged_input", "shape": [1, 1, 224, 56], "dtype": "float32", "quantization": {"dtype": "uint16", "min": -4.259857177821688, "scale": 0.00012299639596413027, "original_dtype": "float32"}}, {"name": "StatefulPartitionedCall/functional_177_1/efficientnetv2-b3_1/block2c_project_bn_1/batchnorm/sub", "shape": [1, 1, 1, 40], "dtype": "float32", "quantization": {"dtype": "uint16", "min": -11.718592467504134, "scale": 0.0002829826004565003, "original_dtype": "float32"}}, {"name": "StatefulPartitionedCall/functional_177_1/efficientnetv2-b3_1/block2c_expand_conv_1/convolution/merged_input", "shape": [3, 3, 40, 160], "dtype": "float32", "quantization": {"dtype": "uint16", "min": -0.3005542753971877, "scale": 9.022673453129229e-06, "original_dtype": "float32"}}, {"name": "StatefulPartitionedCall/functional_177_1/efficientnetv2-b3_1/block2c_expand_bn_1/batchnorm/sub", "shape": [1, 1, 1, 160], "dtype": "float32", "quantization": {"dtype": "uint16", "min": -4.377956705842091, "scale": 9.77484305135771e-05, "original_dtype": "float32"}}, {"name": "StatefulPartitionedCall/functional_177_1/efficientnetv2-b3_1/block2c_project_conv_1/convolution/merged_input", "shape": [1, 1, 160, 40], "dtype": "float32", "quantization": {"dtype": "uint16", "min": -4.721995939982514, "scale": 0.00013927959000626828, "original_dtype": "float32"}}, {"name": "StatefulPartitionedCall/functional_177_1/efficientnetv2-b3_1/block2b_project_bn_1/batchnorm/sub", "shape": [1, 1, 1, 40], "dtype": "float32", "quantization": {"dtype": "uint16", "min": -3.6134964128303486, "scale": 9.195349295952232e-05, "original_dtype": "float32"}}, {"name": "StatefulPartitionedCall/functional_177_1/efficientnetv2-b3_1/block2b_expand_conv_1/convolution/merged_input", "shape": [3, 3, 40, 160], "dtype": "float32", "quantization": {"dtype": "uint16", "min": -0.20931836625113043, "scale": 7.65640170639491e-06, "original_dtype": "float32"}}, {"name": "StatefulPartitionedCall/functional_177_1/efficientnetv2-b3_1/block2b_expand_bn_1/batchnorm/sub", "shape": [1, 1, 1, 160], "dtype": "float32", "quantization": {"dtype": "uint16", "min": -5.731737705421928, "scale": 0.0001304505827625729, "original_dtype": "float32"}}, {"name": "StatefulPartitionedCall/functional_177_1/efficientnetv2-b3_1/block2b_project_conv_1/convolution/merged_input", "shape": [1, 1, 160, 40], "dtype": "float32", "quantization": {"dtype": "uint16", "min": -1.987570604539858, "scale": 5.645865823599188e-05, "original_dtype": "float32"}}, {"name": "StatefulPartitionedCall/functional_177_1/efficientnetv2-b3_1/block1b_project_conv_1/convolution/merged_input", "shape": [3, 3, 16, 16], "dtype": "float32", "quantization": {"dtype": "uint16", "min": -0.8594952630534674, "scale": 2.524363437069629e-05, "original_dtype": "float32"}}, {"name": "StatefulPartitionedCall/functional_177_1/efficientnetv2-b3_1/block1b_project_bn_1/batchnorm/sub", "shape": [1, 1, 1, 16], "dtype": "float32", "quantization": {"dtype": "uint16", "min": -8.959230714933163, "scale": 0.00024354339073404092, "original_dtype": "float32"}}, {"name": "StatefulPartitionedCall/functional_177_1/efficientnetv2-b3_1/rescaling_17_1/Cast/x", "shape": [], "dtype": "float32", "quantization": {"dtype": "uint16", "min": 0.003921568859368563, "scale": 1.0, "original_dtype": "float32"}}, {"name": "StatefulPartitionedCall/functional_177_1/efficientnetv2-b3_1/rescaling_17_1/add", "shape": [1, 1, 1, 3], "dtype": "float32", "quantization": {"dtype": "uint16", "min": -0.48500001430511475, "scale": 1.2054631263847582e-06, "original_dtype": "float32"}}, {"name": "ConstantFolding/StatefulPartitionedCall/functional_177_1/efficientnetv2-b3_1/normalization_17_1/truediv_recip", "shape": [1, 1, 1, 3], "dtype": "float32", "quantization": {"dtype": "uint16", "min": 4.366812229156494, "scale": 1.487352122810837e-06, "original_dtype": "float32"}}, {"name": "StatefulPartitionedCall/functional_177_1/efficientnetv2-b3_1/stem_conv_1/convolution/merged_input", "shape": [3, 3, 3, 40], "dtype": "float32", "quantization": {"dtype": "uint16", "min": -6.404604447518259, "scale": 0.00018967051996085702, "original_dtype": "float32"}}, {"name": "StatefulPartitionedCall/functional_177_1/efficientnetv2-b3_1/stem_bn_1/batchnorm/sub", "shape": [1, 1, 1, 40], "dtype": "float32", "quantization": {"dtype": "uint16", "min": -23.600225000453506, "scale": 0.0004385762204837952, "original_dtype": "float32"}}, {"name": "StatefulPartitionedCall/functional_177_1/efficientnetv2-b3_1/block1a_project_conv_1/convolution/merged_input", "shape": [3, 3, 40, 16], "dtype": "float32", "quantization": {"dtype": "uint16", "min": -1.980460171351364, "scale": 4.617103024552068e-05, "original_dtype": "float32"}}, {"name": "StatefulPartitionedCall/functional_177_1/efficientnetv2-b3_1/block1a_project_bn_1/batchnorm/sub", "shape": [1, 1, 1, 16], "dtype": "float32", "quantization": {"dtype": "uint16", "min": 1.4678431749343872, "scale": 0.00019905081127804421, "original_dtype": "float32"}}, {"name": "StatefulPartitionedCall/functional_177_1/efficientnetv2-b3_1/block2a_expand_conv_1/convolution/merged_input", "shape": [3, 3, 16, 64], "dtype": "float32", "quantization": {"dtype": "uint16", "min": -1.2440649311848289, "scale": 3.417760799958321e-05, "original_dtype": "float32"}}, {"name": "StatefulPartitionedCall/functional_177_1/efficientnetv2-b3_1/block2a_expand_bn_1/batchnorm/sub", "shape": [1, 1, 1, 64], "dtype": "float32", "quantization": {"dtype": "uint16", "min": -18.598309681447756, "scale": 0.000492722664161706, "original_dtype": "float32"}}, {"name": "StatefulPartitionedCall/functional_177_1/efficientnetv2-b3_1/block2a_project_conv_1/convolution/merged_input", "shape": [1, 1, 64, 40], "dtype": "float32", "quantization": {"dtype": "uint16", "min": -1.0979424268791729, "scale": 3.140118480992915e-05, "original_dtype": "float32"}}, {"name": "StatefulPartitionedCall/functional_177_1/efficientnetv2-b3_1/block2a_project_bn_1/batchnorm/sub", "shape": [1, 1, 1, 40], "dtype": "float32", "quantization": {"dtype": "uint16", "min": -14.891085204065297, "scale": 0.0004592045517474188, "original_dtype": "float32"}}, {"name": "StatefulPartitionedCall/functional_177_1/efficientnetv2-b3_1/block3a_expand_conv_1/convolution/merged_input", "shape": [3, 3, 40, 160], "dtype": "float32", "quantization": {"dtype": "uint16", "min": -0.11482144829459635, "scale": 4.078190314139455e-06, "original_dtype": "float32"}}, {"name": "StatefulPartitionedCall/functional_177_1/efficientnetv2-b3_1/block3a_expand_bn_1/batchnorm/sub", "shape": [1, 1, 1, 160], "dtype": "float32", "quantization": {"dtype": "uint16", "min": -2.672246942500496, "scale": 0.00013706642093252444, "original_dtype": "float32"}}, {"name": "StatefulPartitionedCall/functional_177_1/efficientnetv2-b3_1/block3a_project_conv_1/convolution/merged_input", "shape": [1, 1, 160, 56], "dtype": "float32", "quantization": {"dtype": "uint16", "min": -1.7455382957641854, "scale": 5.143618268989231e-05, "original_dtype": "float32"}}, {"name": "StatefulPartitionedCall/functional_177_1/efficientnetv2-b3_1/block3a_project_bn_1/batchnorm/sub", "shape": [1, 1, 1, 56], "dtype": "float32", "quantization": {"dtype": "uint16", "min": -16.45193878282096, "scale": 0.0004693178942467825, "original_dtype": "float32"}}, {"name": "StatefulPartitionedCall/functional_177_1/efficientnetv2-b3_1/block4a_expand_conv_1/convolution/merged_input", "shape": [1, 1, 56, 224], "dtype": "float32", "quantization": {"dtype": "uint16", "min": -0.3562688674608066, "scale": 1.0291136874571957e-05, "original_dtype": "float32"}}, {"name": "StatefulPartitionedCall/functional_177_1/efficientnetv2-b3_1/block4a_expand_bn_1/batchnorm/sub", "shape": [1, 1, 1, 224], "dtype": "float32", "quantization": {"dtype": "uint16", "min": -4.6990289087470885, "scale": 0.00017918127392743902, "original_dtype": "float32"}}, {"name": "StatefulPartitionedCall/functional_177_1/efficientnetv2-b3_1/block4a_dwconv2_1/depthwise/ReadVariableOp", "shape": [3, 3, 224, 1], "dtype": "float32", "quantization": {"dtype": "uint16", "min": -0.5977111587783078, "scale": 1.9944314417508353e-05, "original_dtype": "float32"}}, {"name": "StatefulPartitionedCall/functional_177_1/efficientnetv2-b3_1/block4a_bn_1/batchnorm/mul", "shape": [1, 1, 1, 224], "dtype": "float32", "quantization": {"dtype": "uint16", "min": -16.359556111709527, "scale": 0.0011559889847166144, "original_dtype": "float32"}}, {"name": "StatefulPartitionedCall/functional_177_1/efficientnetv2-b3_1/block4a_bn_1/batchnorm/sub", "shape": [1, 1, 1, 224], "dtype": "float32", "quantization": {"dtype": "uint16", "min": -1.729133028939322, "scale": 0.00021782980964214185, "original_dtype": "float32"}}, {"name": "StatefulPartitionedCall/functional_177_1/efficientnetv2-b3_1/block4a_se_squeeze_1/Mean/reduction_indices", "shape": [2], "dtype": "int32"}, {"name": "StatefulPartitionedCall/functional_177_1/efficientnetv2-b3_1/block4a_se_reshape_1/strided_slice/stack", "shape": [1], "dtype": "int32"}, {"name": "StatefulPartitionedCall/functional_177_1/efficientnetv2-b3_1/block4a_se_reshape_1/strided_slice/stack_1", "shape": [1], "dtype": "int32"}, {"name": "StatefulPartitionedCall/functional_177_1/efficientnetv2-b3_1/block4a_se_reshape_1/strided_slice/stack_2", "shape": [1], "dtype": "int32"}, {"name": "StatefulPartitionedCall/functional_177_1/efficientnetv2-b3_1/block4a_se_reshape_1/Reshape/shape/1", "shape": [], "dtype": "int32"}, {"name": "StatefulPartitionedCall/functional_177_1/efficientnetv2-b3_1/block4a_se_reshape_1/Reshape/shape/2", "shape": [], "dtype": "int32"}, {"name": "StatefulPartitionedCall/functional_177_1/efficientnetv2-b3_1/block4a_se_reshape_1/Reshape/shape/3", "shape": [], "dtype": "int32"}, {"name": "StatefulPartitionedCall/functional_177_1/efficientnetv2-b3_1/block4a_se_reduce_1/convolution/ReadVariableOp", "shape": [1, 1, 224, 14], "dtype": "float32", "quantization": {"dtype": "uint16", "min": -2.118449468120445, "scale": 5.279361696913412e-05, "original_dtype": "float32"}}, {"name": "StatefulPartitionedCall/functional_177_1/efficientnetv2-b3_1/block4a_se_reduce_1/Squeeze", "shape": [14], "dtype": "float32", "quantization": {"dtype": "uint16", "min": -0.8316239948266156, "scale": 1.8950505761248193e-05, "original_dtype": "float32"}}, {"name": "StatefulPartitionedCall/functional_177_1/efficientnetv2-b3_1/block4a_se_expand_1/convolution/ReadVariableOp", "shape": [1, 1, 14, 224], "dtype": "float32", "quantization": {"dtype": "uint16", "min": -0.6660667532712887, "scale": 2.3884489305815928e-05, "original_dtype": "float32"}}, {"name": "StatefulPartitionedCall/functional_177_1/efficientnetv2-b3_1/block4a_se_expand_1/Squeeze", "shape": [224], "dtype": "float32", "quantization": {"dtype": "uint16", "min": -5.164719837212296, "scale": 0.00015202872475015587, "original_dtype": "float32"}}, {"name": "StatefulPartitionedCall/functional_177_1/efficientnetv2-b3_1/block4a_project_conv_1/convolution/merged_input", "shape": [1, 1, 224, 112], "dtype": "float32", "quantization": {"dtype": "uint16", "min": -1.377170476500899, "scale": 4.428485679146244e-05, "original_dtype": "float32"}}, {"name": "StatefulPartitionedCall/functional_177_1/efficientnetv2-b3_1/block4a_project_bn_1/batchnorm/sub", "shape": [1, 1, 1, 112], "dtype": "float32", "quantization": {"dtype": "uint16", "min": -32.99023525598639, "scale": 0.0009525114842207706, "original_dtype": "float32"}}, {"name": "StatefulPartitionedCall/functional_177_1/efficientnetv2-b3_1/block5a_expand_conv_1/convolution/merged_input", "shape": [1, 1, 112, 672], "dtype": "float32", "quantization": {"dtype": "uint16", "min": -0.17961038393169207, "scale": 5.254838617077006e-06, "original_dtype": "float32"}}, {"name": "StatefulPartitionedCall/functional_177_1/efficientnetv2-b3_1/block5a_expand_bn_1/batchnorm/sub", "shape": [1, 1, 1, 672], "dtype": "float32", "quantization": {"dtype": "uint16", "min": -3.3915372064550726, "scale": 0.00015690664845963788, "original_dtype": "float32"}}, {"name": "StatefulPartitionedCall/functional_177_1/efficientnetv2-b3_1/block5a_dwconv2_1/depthwise/ReadVariableOp", "shape": [3, 3, 672, 1], "dtype": "float32", "quantization": {"dtype": "uint16", "min": -1.0892146115664296, "scale": 3.27652321260545e-05, "original_dtype": "float32"}}, {"name": "StatefulPartitionedCall/functional_177_1/efficientnetv2-b3_1/block5a_bn_1/batchnorm/mul", "shape": [1, 1, 1, 672], "dtype": "float32", "quantization": {"dtype": "uint16", "min": 0.7146056294441223, "scale": 0.000595308868128511, "original_dtype": "float32"}}, {"name": "StatefulPartitionedCall/functional_177_1/efficientnetv2-b3_1/block5a_bn_1/batchnorm/sub", "shape": [1, 1, 1, 672], "dtype": "float32", "quantization": {"dtype": "uint16", "min": -4.261990684043027, "scale": 0.0002399769529303506, "original_dtype": "float32"}}, {"name": "StatefulPartitionedCall/functional_177_1/efficientnetv2-b3_1/block5a_se_squeeze_1/Mean/reduction_indices", "shape": [2], "dtype": "int32"}, {"name": "StatefulPartitionedCall/functional_177_1/efficientnetv2-b3_1/block5a_se_reshape_1/strided_slice/stack", "shape": [1], "dtype": "int32"}, {"name": "StatefulPartitionedCall/functional_177_1/efficientnetv2-b3_1/block5a_se_reshape_1/strided_slice/stack_1", "shape": [1], "dtype": "int32"}, {"name": "StatefulPartitionedCall/functional_177_1/efficientnetv2-b3_1/block5a_se_reshape_1/strided_slice/stack_2", "shape": [1], "dtype": "int32"}, {"name": "StatefulPartitionedCall/functional_177_1/efficientnetv2-b3_1/block5a_se_reshape_1/Reshape/shape/1", "shape": [], "dtype": "int32"}, {"name": "StatefulPartitionedCall/functional_177_1/efficientnetv2-b3_1/block5a_se_reshape_1/Reshape/shape/2", "shape": [], "dtype": "int32"}, {"name": "StatefulPartitionedCall/functional_177_1/efficientnetv2-b3_1/block5a_se_reshape_1/Reshape/shape/3", "shape": [], "dtype": "int32"}, {"name": "StatefulPartitionedCall/functional_177_1/efficientnetv2-b3_1/block5a_se_reduce_1/convolution/ReadVariableOp", "shape": [1, 1, 672, 28], "dtype": "float32", "quantization": {"dtype": "uint16", "min": -1.341324001967684, "scale": 3.8221981647840995e-05, "original_dtype": "float32"}}, {"name": "StatefulPartitionedCall/functional_177_1/efficientnetv2-b3_1/block5a_se_reduce_1/Squeeze", "shape": [28], "dtype": "float32", "quantization": {"dtype": "uint16", "min": -1.8073279551858714, "scale": 6.152605804888073e-05, "original_dtype": "float32"}}, {"name": "StatefulPartitionedCall/functional_177_1/efficientnetv2-b3_1/block5a_se_expand_1/convolution/ReadVariableOp", "shape": [1, 1, 28, 672], "dtype": "float32", "quantization": {"dtype": "uint16", "min": -0.8341958099293055, "scale": 2.515593045834883e-05, "original_dtype": "float32"}}, {"name": "StatefulPartitionedCall/functional_177_1/efficientnetv2-b3_1/block5a_se_expand_1/Squeeze", "shape": [672], "dtype": "float32", "quantization": {"dtype": "uint16", "min": -3.6733758640514864, "scale": 0.00010932015546846874, "original_dtype": "float32"}}, {"name": "StatefulPartitionedCall/functional_177_1/efficientnetv2-b3_1/block5a_project_conv_1/convolution/merged_input", "shape": [1, 1, 672, 136], "dtype": "float32", "quantization": {"dtype": "uint16", "min": -1.9166550771735522, "scale": 5.413821080624671e-05, "original_dtype": "float32"}}, {"name": "StatefulPartitionedCall/functional_177_1/efficientnetv2-b3_1/block5a_project_bn_1/batchnorm/sub", "shape": [1, 1, 1, 136], "dtype": "float32", "quantization": {"dtype": "uint16", "min": -8.607003138159381, "scale": 0.0002089636344208255, "original_dtype": "float32"}}, {"name": "StatefulPartitionedCall/functional_177_1/efficientnetv2-b3_1/block6a_expand_conv_1/convolution/merged_input", "shape": [1, 1, 136, 816], "dtype": "float32", "quantization": {"dtype": "uint16", "min": -0.12094933180589103, "scale": 4.102619714592145e-06, "original_dtype": "float32"}}, {"name": "StatefulPartitionedCall/functional_177_1/efficientnetv2-b3_1/block6a_expand_bn_1/batchnorm/sub", "shape": [1, 1, 1, 816], "dtype": "float32", "quantization": {"dtype": "uint16", "min": -2.2686342165345885, "scale": 8.985045809872028e-05, "original_dtype": "float32"}}, {"name": "StatefulPartitionedCall/functional_177_1/efficientnetv2-b3_1/block6a_dwconv2_1/depthwise/ReadVariableOp", "shape": [3, 3, 816, 1], "dtype": "float32", "quantization": {"dtype": "uint16", "min": -0.3518128872818138, "scale": 1.109784824711567e-05, "original_dtype": "float32"}}, {"name": "StatefulPartitionedCall/functional_177_1/efficientnetv2-b3_1/block6a_bn_1/batchnorm/mul", "shape": [1, 1, 1, 816], "dtype": "float32", "quantization": {"dtype": "uint16", "min": 2.2280635833740234, "scale": 0.0007460193629667562, "original_dtype": "float32"}}, {"name": "StatefulPartitionedCall/functional_177_1/efficientnetv2-b3_1/block6a_bn_1/batchnorm/sub", "shape": [1, 1, 1, 816], "dtype": "float32", "quantization": {"dtype": "uint16", "min": -6.515352197252586, "scale": 0.0002874504631277061, "original_dtype": "float32"}}, {"name": "StatefulPartitionedCall/functional_177_1/efficientnetv2-b3_1/block6a_se_squeeze_1/Mean/reduction_indices", "shape": [2], "dtype": "int32"}, {"name": "StatefulPartitionedCall/functional_177_1/efficientnetv2-b3_1/block6a_se_reshape_1/strided_slice/stack", "shape": [1], "dtype": "int32"}, {"name": "StatefulPartitionedCall/functional_177_1/efficientnetv2-b3_1/block6a_se_reshape_1/strided_slice/stack_1", "shape": [1], "dtype": "int32"}, {"name": "StatefulPartitionedCall/functional_177_1/efficientnetv2-b3_1/block6a_se_reshape_1/strided_slice/stack_2", "shape": [1], "dtype": "int32"}, {"name": "StatefulPartitionedCall/functional_177_1/efficientnetv2-b3_1/block6a_se_reshape_1/Reshape/shape/1", "shape": [], "dtype": "int32"}, {"name": "StatefulPartitionedCall/functional_177_1/efficientnetv2-b3_1/block6a_se_reshape_1/Reshape/shape/2", "shape": [], "dtype": "int32"}, {"name": "StatefulPartitionedCall/functional_177_1/efficientnetv2-b3_1/block6a_se_reshape_1/Reshape/shape/3", "shape": [], "dtype": "int32"}, {"name": "StatefulPartitionedCall/functional_177_1/efficientnetv2-b3_1/block6a_se_reduce_1/convolution/ReadVariableOp", "shape": [1, 1, 816, 34], "dtype": "float32", "quantization": {"dtype": "uint16", "min": -0.8748121164552114, "scale": 3.2883964833109474e-05, "original_dtype": "float32"}}, {"name": "StatefulPartitionedCall/functional_177_1/efficientnetv2-b3_1/block6a_se_reduce_1/Squeeze", "shape": [34], "dtype": "float32", "quantization": {"dtype": "uint16", "min": -0.538510582937641, "scale": 5.432915485650131e-05, "original_dtype": "float32"}}, {"name": "StatefulPartitionedCall/functional_177_1/efficientnetv2-b3_1/block6a_se_expand_1/convolution/ReadVariableOp", "shape": [1, 1, 34, 816], "dtype": "float32", "quantization": {"dtype": "uint16", "min": -0.7633477930729055, "scale": 2.3262869295815976e-05, "original_dtype": "float32"}}, {"name": "StatefulPartitionedCall/functional_177_1/efficientnetv2-b3_1/block6a_se_expand_1/Squeeze", "shape": [816], "dtype": "float32", "quantization": {"dtype": "uint16", "min": -1.1578022036898405, "scale": 6.235806558355364e-05, "original_dtype": "float32"}}, {"name": "StatefulPartitionedCall/functional_177_1/efficientnetv2-b3_1/block6a_project_conv_1/convolution/merged_input", "shape": [1, 1, 816, 232], "dtype": "float32", "quantization": {"dtype": "uint16", "min": -0.594233701575982, "scale": 2.382271093553488e-05, "original_dtype": "float32"}}, {"name": "StatefulPartitionedCall/functional_177_1/efficientnetv2-b3_1/block6a_project_bn_1/batchnorm/sub", "shape": [1, 1, 1, 232], "dtype": "float32", "quantization": {"dtype": "uint16", "min": -7.58043339948246, "scale": 0.00034694646892226007, "original_dtype": "float32"}}, {"name": "StatefulPartitionedCall/functional_177_1/efficientnetv2-b3_1/top_conv_1/convolution/merged_input", "shape": [1, 1, 232, 1536], "dtype": "float32", "quantization": {"dtype": "uint16", "min": -0.09742509828962995, "scale": 3.1284149473261175e-06, "original_dtype": "float32"}}, {"name": "StatefulPartitionedCall/functional_177_1/efficientnetv2-b3_1/top_bn_1/batchnorm/sub", "shape": [1, 1, 1, 1536], "dtype": "float32", "quantization": {"dtype": "uint16", "min": -1.6332672326072015, "scale": 3.515048386112561e-05, "original_dtype": "float32"}}, {"name": "StatefulPartitionedCall/functional_177_1/global_average_pooling2d_17_1/Mean/reduction_indices", "shape": [2], "dtype": "int32"}, {"name": "StatefulPartitionedCall/functional_177_1/batch_normalization_17_1/batchnorm/mul", "shape": [1536], "dtype": "float32", "quantization": {"dtype": "uint16", "min": 2.5997400283813477, "scale": 0.0003260570068312808, "original_dtype": "float32"}}, {"name": "StatefulPartitionedCall/functional_177_1/batch_normalization_17_1/batchnorm/sub", "shape": [1536], "dtype": "float32", "quantization": {"dtype": "uint16", "min": -1.3463418850065998, "scale": 8.296924169634558e-05, "original_dtype": "float32"}}, {"name": "StatefulPartitionedCall/functional_177_1/dense_34_1/Cast/ReadVariableOp", "shape": [1536, 256], "dtype": "float32", "quantization": {"dtype": "uint16", "min": -0.14664248228891677, "scale": 4.3741232599229465e-06, "original_dtype": "float32"}}, {"name": "StatefulPartitionedCall/functional_177_1/dense_34_1/BiasAdd/ReadVariableOp", "shape": [256], "dtype": "float32", "quantization": {"dtype": "uint16", "min": -0.1126331314444542, "scale": 1.5788641760039496e-06, "original_dtype": "float32"}}, {"name": "StatefulPartitionedCall/functional_177_1/dense_35_1/Cast/ReadVariableOp", "shape": [256, 10], "dtype": "float32", "quantization": {"dtype": "uint16", "min": -0.14600537253629428, "scale": 4.517073679308674e-06, "original_dtype": "float32"}}, {"name": "StatefulPartitionedCall/functional_177_1/dense_35_1/BiasAdd/ReadVariableOp", "shape": [10], "dtype": "float32", "quantization": {"dtype": "uint16", "min": -0.02503904005073615, "scale": 7.485065183168764e-07, "original_dtype": "float32"}}]}]}